{"format": "graph-model", "generatedBy": "2.5.0", "convertedBy": "TensorFlow.js Converter v3.13.0", "signature": {"inputs": {"input": {"name": "input:0", "dtype": "DT_FLOAT", "tensorShape": {"dim": [{"size": "1"}, {"size": "3"}, {"size": "60"}, {"size": "60"}]}}}, "outputs": {"output": {"name": "Identity:0", "dtype": "DT_FLOAT", "tensorShape": {"dim": [{"size": "1"}, {"size": "5"}]}}}}, "modelTopology": {"node": [{"name": "StatefulPartitionedCall/transpose_125/perm", "op": "Const", "attr": {"dtype": {"type": "DT_INT32"}, "value": {"tensor": {"dtype": "DT_INT32", "tensorShape": {"dim": [{"size": "4"}]}}}}}, {"name": "StatefulPartitionedCall/transpose_98/perm", "op": "Const", "attr": {"value": {"tensor": {"dtype": "DT_INT32", "tensorShape": {"dim": [{"size": "4"}]}}}, "dtype": {"type": "DT_INT32"}}}, {"name": "StatefulPartitionedCall/transpose_62/perm", "op": "Const", "attr": {"dtype": {"type": "DT_INT32"}, "value": {"tensor": {"dtype": "DT_INT32", "tensorShape": {"dim": [{"size": "4"}]}}}}}, {"name": "StatefulPartitionedCall/transpose_35/perm", "op": "Const", "attr": {"dtype": {"type": "DT_INT32"}, "value": {"tensor": {"dtype": "DT_INT32", "tensorShape": {"dim": [{"size": "4"}]}}}}}, {"name": "StatefulPartitionedCall/transpose_17/perm", "op": "Const", "attr": {"dtype": {"type": "DT_INT32"}, "value": {"tensor": {"dtype": "DT_INT32", "tensorShape": {"dim": [{"size": "4"}]}}}}}, {"name": "StatefulPartitionedCall/Const", "op": "Const", "attr": {"dtype": {"type": "DT_INT32"}, "value": {"tensor": {"dtype": "DT_INT32", "tensorShape": {"dim": [{"size": "4"}, {"size": "2"}]}}}}}, {"name": "StatefulPartitionedCall/transpose_1/perm", "op": "Const", "attr": {"value": {"tensor": {"dtype": "DT_INT32", "tensorShape": {"dim": [{"size": "4"}]}}}, "dtype": {"type": "DT_INT32"}}}, {"name": "StatefulPartitionedCall/split", "op": "Const", "attr": {"value": {"tensor": {"dtype": "DT_FLOAT", "tensorShape": {"dim": [{"size": "3"}, {"size": "3"}, {"size": "3"}, {"size": "32"}]}}}, "dtype": {"type": "DT_FLOAT"}}}, {"name": "unknown_0", "op": "Const", "attr": {"dtype": {"type": "DT_FLOAT"}, "value": {"tensor": {"dtype": "DT_FLOAT", "tensorShape": {"dim": [{"size": "32"}]}}}}}, {"name": "StatefulPartitionedCall/transpose_2/perm", "op": "Const", "attr": {"dtype": {"type": "DT_INT32"}, "value": {"tensor": {"dtype": "DT_INT32", "tensorShape": {"dim": [{"size": "4"}]}}}}}, {"name": "StatefulPartitionedCall/onnx_tf_prefix_Constant_2", "op": "Const", "attr": {"value": {"tensor": {"dtype": "DT_FLOAT", "tensorShape": {}}}, "dtype": {"type": "DT_FLOAT"}}}, {"name": "StatefulPartitionedCall/onnx_tf_prefix_Constant_1", "op": "Const", "attr": {"value": {"tensor": {"dtype": "DT_FLOAT", "tensorShape": {}}}, "dtype": {"type": "DT_FLOAT"}}}, {"name": "StatefulPartitionedCall/Const_1", "op": "Const", "attr": {"dtype": {"type": "DT_INT32"}, "value": {"tensor": {"dtype": "DT_INT32", "tensorShape": {"dim": [{"size": "4"}, {"size": "2"}]}}}}}, {"name": "StatefulPartitionedCall/transpose_4/perm", "op": "Const", "attr": {"value": {"tensor": {"dtype": "DT_INT32", "tensorShape": {"dim": [{"size": "4"}]}}}, "dtype": {"type": "DT_INT32"}}}, {"name": "StatefulPartitionedCall/Reshape", "op": "Const", "attr": {"dtype": {"type": "DT_FLOAT"}, "value": {"tensor": {"dtype": "DT_FLOAT", "tensorShape": {"dim": [{"size": "3"}, {"size": "3"}, {"size": "32"}, {"size": "1"}]}}}}}, {"name": "unknown_2", "op": "Const", "attr": {"dtype": {"type": "DT_FLOAT"}, "value": {"tensor": {"dtype": "DT_FLOAT", "tensorShape": {"dim": [{"size": "32"}]}}}}}, {"name": "StatefulPartitionedCall/transpose_5/perm", "op": "Const", "attr": {"value": {"tensor": {"dtype": "DT_INT32", "tensorShape": {"dim": [{"size": "4"}]}}}, "dtype": {"type": "DT_INT32"}}}, {"name": "StatefulPartitionedCall/onnx_tf_prefix_Constant_6", "op": "Const", "attr": {"dtype": {"type": "DT_FLOAT"}, "value": {"tensor": {"dtype": "DT_FLOAT", "tensorShape": {}}}}}, {"name": "StatefulPartitionedCall/onnx_tf_prefix_Constant_5", "op": "Const", "attr": {"dtype": {"type": "DT_FLOAT"}, "value": {"tensor": {"dtype": "DT_FLOAT", "tensorShape": {}}}}}, {"name": "StatefulPartitionedCall/transpose_7/perm", "op": "Const", "attr": {"dtype": {"type": "DT_INT32"}, "value": {"tensor": {"dtype": "DT_INT32", "tensorShape": {"dim": [{"size": "4"}]}}}}}, {"name": "StatefulPartitionedCall/split_1", "op": "Const", "attr": {"dtype": {"type": "DT_FLOAT"}, "value": {"tensor": {"dtype": "DT_FLOAT", "tensorShape": {"dim": [{"size": "1"}, {"size": "1"}, {"size": "32"}, {"size": "16"}]}}}}}, {"name": "unknown_4", "op": "Const", "attr": {"value": {"tensor": {"dtype": "DT_FLOAT", "tensorShape": {"dim": [{"size": "16"}]}}}, "dtype": {"type": "DT_FLOAT"}}}, {"name": "StatefulPartitionedCall/split_2", "op": "Const", "attr": {"value": {"tensor": {"dtype": "DT_FLOAT", "tensorShape": {"dim": [{"size": "1"}, {"size": "1"}, {"size": "16"}, {"size": "96"}]}}}, "dtype": {"type": "DT_FLOAT"}}}, {"name": "unknown_6", "op": "Const", "attr": {"dtype": {"type": "DT_FLOAT"}, "value": {"tensor": {"dtype": "DT_FLOAT", "tensorShape": {"dim": [{"size": "96"}]}}}}}, {"name": "StatefulPartitionedCall/transpose_11/perm", "op": "Const", "attr": {"value": {"tensor": {"dtype": "DT_INT32", "tensorShape": {"dim": [{"size": "4"}]}}}, "dtype": {"type": "DT_INT32"}}}, {"name": "StatefulPartitionedCall/onnx_tf_prefix_Constant_11", "op": "Const", "attr": {"dtype": {"type": "DT_FLOAT"}, "value": {"tensor": {"dtype": "DT_FLOAT", "tensorShape": {}}}}}, {"name": "StatefulPartitionedCall/onnx_tf_prefix_Constant_10", "op": "Const", "attr": {"value": {"tensor": {"dtype": "DT_FLOAT", "tensorShape": {}}}, "dtype": {"type": "DT_FLOAT"}}}, {"name": "StatefulPartitionedCall/Const_2", "op": "Const", "attr": {"value": {"tensor": {"dtype": "DT_INT32", "tensorShape": {"dim": [{"size": "4"}, {"size": "2"}]}}}, "dtype": {"type": "DT_INT32"}}}, {"name": "StatefulPartitionedCall/transpose_13/perm", "op": "Const", "attr": {"dtype": {"type": "DT_INT32"}, "value": {"tensor": {"dtype": "DT_INT32", "tensorShape": {"dim": [{"size": "4"}]}}}}}, {"name": "StatefulPartitionedCall/Reshape_1", "op": "Const", "attr": {"dtype": {"type": "DT_FLOAT"}, "value": {"tensor": {"dtype": "DT_FLOAT", "tensorShape": {"dim": [{"size": "3"}, {"size": "3"}, {"size": "96"}, {"size": "1"}]}}}}}, {"name": "unknown_8", "op": "Const", "attr": {"value": {"tensor": {"dtype": "DT_FLOAT", "tensorShape": {"dim": [{"size": "96"}]}}}, "dtype": {"type": "DT_FLOAT"}}}, {"name": "StatefulPartitionedCall/transpose_14/perm", "op": "Const", "attr": {"dtype": {"type": "DT_INT32"}, "value": {"tensor": {"dtype": "DT_INT32", "tensorShape": {"dim": [{"size": "4"}]}}}}}, {"name": "StatefulPartitionedCall/onnx_tf_prefix_Constant_15", "op": "Const", "attr": {"value": {"tensor": {"dtype": "DT_FLOAT", "tensorShape": {}}}, "dtype": {"type": "DT_FLOAT"}}}, {"name": "StatefulPartitionedCall/onnx_tf_prefix_Constant_14", "op": "Const", "attr": {"dtype": {"type": "DT_FLOAT"}, "value": {"tensor": {"dtype": "DT_FLOAT", "tensorShape": {}}}}}, {"name": "StatefulPartitionedCall/transpose_16/perm", "op": "Const", "attr": {"value": {"tensor": {"dtype": "DT_INT32", "tensorShape": {"dim": [{"size": "4"}]}}}, "dtype": {"type": "DT_INT32"}}}, {"name": "StatefulPartitionedCall/split_3", "op": "Const", "attr": {"dtype": {"type": "DT_FLOAT"}, "value": {"tensor": {"dtype": "DT_FLOAT", "tensorShape": {"dim": [{"size": "1"}, {"size": "1"}, {"size": "96"}, {"size": "24"}]}}}}}, {"name": "unknown_10", "op": "Const", "attr": {"dtype": {"type": "DT_FLOAT"}, "value": {"tensor": {"dtype": "DT_FLOAT", "tensorShape": {"dim": [{"size": "24"}]}}}}}, {"name": "StatefulPartitionedCall/split_4", "op": "Const", "attr": {"dtype": {"type": "DT_FLOAT"}, "value": {"tensor": {"dtype": "DT_FLOAT", "tensorShape": {"dim": [{"size": "1"}, {"size": "1"}, {"size": "24"}, {"size": "144"}]}}}}}, {"name": "unknown_12", "op": "Const", "attr": {"value": {"tensor": {"dtype": "DT_FLOAT", "tensorShape": {"dim": [{"size": "144"}]}}}, "dtype": {"type": "DT_FLOAT"}}}, {"name": "StatefulPartitionedCall/transpose_20/perm", "op": "Const", "attr": {"dtype": {"type": "DT_INT32"}, "value": {"tensor": {"dtype": "DT_INT32", "tensorShape": {"dim": [{"size": "4"}]}}}}}, {"name": "StatefulPartitionedCall/onnx_tf_prefix_Constant_20", "op": "Const", "attr": {"dtype": {"type": "DT_FLOAT"}, "value": {"tensor": {"dtype": "DT_FLOAT", "tensorShape": {}}}}}, {"name": "StatefulPartitionedCall/onnx_tf_prefix_Constant_19", "op": "Const", "attr": {"dtype": {"type": "DT_FLOAT"}, "value": {"tensor": {"dtype": "DT_FLOAT", "tensorShape": {}}}}}, {"name": "StatefulPartitionedCall/Const_3", "op": "Const", "attr": {"value": {"tensor": {"dtype": "DT_INT32", "tensorShape": {"dim": [{"size": "4"}, {"size": "2"}]}}}, "dtype": {"type": "DT_INT32"}}}, {"name": "StatefulPartitionedCall/transpose_22/perm", "op": "Const", "attr": {"value": {"tensor": {"dtype": "DT_INT32", "tensorShape": {"dim": [{"size": "4"}]}}}, "dtype": {"type": "DT_INT32"}}}, {"name": "StatefulPartitionedCall/Reshape_2", "op": "Const", "attr": {"dtype": {"type": "DT_FLOAT"}, "value": {"tensor": {"dtype": "DT_FLOAT", "tensorShape": {"dim": [{"size": "3"}, {"size": "3"}, {"size": "144"}, {"size": "1"}]}}}}}, {"name": "unknown_14", "op": "Const", "attr": {"dtype": {"type": "DT_FLOAT"}, "value": {"tensor": {"dtype": "DT_FLOAT", "tensorShape": {"dim": [{"size": "144"}]}}}}}, {"name": "StatefulPartitionedCall/transpose_23/perm", "op": "Const", "attr": {"value": {"tensor": {"dtype": "DT_INT32", "tensorShape": {"dim": [{"size": "4"}]}}}, "dtype": {"type": "DT_INT32"}}}, {"name": "StatefulPartitionedCall/onnx_tf_prefix_Constant_24", "op": "Const", "attr": {"value": {"tensor": {"dtype": "DT_FLOAT", "tensorShape": {}}}, "dtype": {"type": "DT_FLOAT"}}}, {"name": "StatefulPartitionedCall/onnx_tf_prefix_Constant_23", "op": "Const", "attr": {"dtype": {"type": "DT_FLOAT"}, "value": {"tensor": {"dtype": "DT_FLOAT", "tensorShape": {}}}}}, {"name": "StatefulPartitionedCall/transpose_25/perm", "op": "Const", "attr": {"dtype": {"type": "DT_INT32"}, "value": {"tensor": {"dtype": "DT_INT32", "tensorShape": {"dim": [{"size": "4"}]}}}}}, {"name": "StatefulPartitionedCall/split_5", "op": "Const", "attr": {"dtype": {"type": "DT_FLOAT"}, "value": {"tensor": {"dtype": "DT_FLOAT", "tensorShape": {"dim": [{"size": "1"}, {"size": "1"}, {"size": "144"}, {"size": "24"}]}}}}}, {"name": "unknown_16", "op": "Const", "attr": {"value": {"tensor": {"dtype": "DT_FLOAT", "tensorShape": {"dim": [{"size": "24"}]}}}, "dtype": {"type": "DT_FLOAT"}}}, {"name": "StatefulPartitionedCall/transpose_26/perm", "op": "Const", "attr": {"dtype": {"type": "DT_INT32"}, "value": {"tensor": {"dtype": "DT_INT32", "tensorShape": {"dim": [{"size": "4"}]}}}}}, {"name": "StatefulPartitionedCall/transpose_28/perm", "op": "Const", "attr": {"value": {"tensor": {"dtype": "DT_INT32", "tensorShape": {"dim": [{"size": "4"}]}}}, "dtype": {"type": "DT_INT32"}}}, {"name": "StatefulPartitionedCall/split_6", "op": "Const", "attr": {"dtype": {"type": "DT_FLOAT"}, "value": {"tensor": {"dtype": "DT_FLOAT", "tensorShape": {"dim": [{"size": "1"}, {"size": "1"}, {"size": "24"}, {"size": "144"}]}}}}}, {"name": "unknown_18", "op": "Const", "attr": {"dtype": {"type": "DT_FLOAT"}, "value": {"tensor": {"dtype": "DT_FLOAT", "tensorShape": {"dim": [{"size": "144"}]}}}}}, {"name": "StatefulPartitionedCall/transpose_29/perm", "op": "Const", "attr": {"dtype": {"type": "DT_INT32"}, "value": {"tensor": {"dtype": "DT_INT32", "tensorShape": {"dim": [{"size": "4"}]}}}}}, {"name": "StatefulPartitionedCall/onnx_tf_prefix_Constant_30", "op": "Const", "attr": {"dtype": {"type": "DT_FLOAT"}, "value": {"tensor": {"dtype": "DT_FLOAT", "tensorShape": {}}}}}, {"name": "StatefulPartitionedCall/onnx_tf_prefix_Constant_29", "op": "Const", "attr": {"dtype": {"type": "DT_FLOAT"}, "value": {"tensor": {"dtype": "DT_FLOAT", "tensorShape": {}}}}}, {"name": "StatefulPartitionedCall/Const_4", "op": "Const", "attr": {"value": {"tensor": {"dtype": "DT_INT32", "tensorShape": {"dim": [{"size": "4"}, {"size": "2"}]}}}, "dtype": {"type": "DT_INT32"}}}, {"name": "StatefulPartitionedCall/transpose_31/perm", "op": "Const", "attr": {"dtype": {"type": "DT_INT32"}, "value": {"tensor": {"dtype": "DT_INT32", "tensorShape": {"dim": [{"size": "4"}]}}}}}, {"name": "StatefulPartitionedCall/Reshape_3", "op": "Const", "attr": {"dtype": {"type": "DT_FLOAT"}, "value": {"tensor": {"dtype": "DT_FLOAT", "tensorShape": {"dim": [{"size": "3"}, {"size": "3"}, {"size": "144"}, {"size": "1"}]}}}}}, {"name": "unknown_20", "op": "Const", "attr": {"dtype": {"type": "DT_FLOAT"}, "value": {"tensor": {"dtype": "DT_FLOAT", "tensorShape": {"dim": [{"size": "144"}]}}}}}, {"name": "StatefulPartitionedCall/transpose_32/perm", "op": "Const", "attr": {"value": {"tensor": {"dtype": "DT_INT32", "tensorShape": {"dim": [{"size": "4"}]}}}, "dtype": {"type": "DT_INT32"}}}, {"name": "StatefulPartitionedCall/onnx_tf_prefix_Constant_34", "op": "Const", "attr": {"value": {"tensor": {"dtype": "DT_FLOAT", "tensorShape": {}}}, "dtype": {"type": "DT_FLOAT"}}}, {"name": "StatefulPartitionedCall/onnx_tf_prefix_Constant_33", "op": "Const", "attr": {"dtype": {"type": "DT_FLOAT"}, "value": {"tensor": {"dtype": "DT_FLOAT", "tensorShape": {}}}}}, {"name": "StatefulPartitionedCall/transpose_34/perm", "op": "Const", "attr": {"dtype": {"type": "DT_INT32"}, "value": {"tensor": {"dtype": "DT_INT32", "tensorShape": {"dim": [{"size": "4"}]}}}}}, {"name": "StatefulPartitionedCall/split_7", "op": "Const", "attr": {"dtype": {"type": "DT_FLOAT"}, "value": {"tensor": {"dtype": "DT_FLOAT", "tensorShape": {"dim": [{"size": "1"}, {"size": "1"}, {"size": "144"}, {"size": "32"}]}}}}}, {"name": "unknown_22", "op": "Const", "attr": {"value": {"tensor": {"dtype": "DT_FLOAT", "tensorShape": {"dim": [{"size": "32"}]}}}, "dtype": {"type": "DT_FLOAT"}}}, {"name": "StatefulPartitionedCall/split_8", "op": "Const", "attr": {"value": {"tensor": {"dtype": "DT_FLOAT", "tensorShape": {"dim": [{"size": "1"}, {"size": "1"}, {"size": "32"}, {"size": "192"}]}}}, "dtype": {"type": "DT_FLOAT"}}}, {"name": "unknown_24", "op": "Const", "attr": {"dtype": {"type": "DT_FLOAT"}, "value": {"tensor": {"dtype": "DT_FLOAT", "tensorShape": {"dim": [{"size": "192"}]}}}}}, {"name": "StatefulPartitionedCall/transpose_38/perm", "op": "Const", "attr": {"dtype": {"type": "DT_INT32"}, "value": {"tensor": {"dtype": "DT_INT32", "tensorShape": {"dim": [{"size": "4"}]}}}}}, {"name": "StatefulPartitionedCall/onnx_tf_prefix_Constant_39", "op": "Const", "attr": {"dtype": {"type": "DT_FLOAT"}, "value": {"tensor": {"dtype": "DT_FLOAT", "tensorShape": {}}}}}, {"name": "StatefulPartitionedCall/onnx_tf_prefix_Constant_38", "op": "Const", "attr": {"dtype": {"type": "DT_FLOAT"}, "value": {"tensor": {"dtype": "DT_FLOAT", "tensorShape": {}}}}}, {"name": "StatefulPartitionedCall/Const_5", "op": "Const", "attr": {"value": {"tensor": {"dtype": "DT_INT32", "tensorShape": {"dim": [{"size": "4"}, {"size": "2"}]}}}, "dtype": {"type": "DT_INT32"}}}, {"name": "StatefulPartitionedCall/transpose_40/perm", "op": "Const", "attr": {"dtype": {"type": "DT_INT32"}, "value": {"tensor": {"dtype": "DT_INT32", "tensorShape": {"dim": [{"size": "4"}]}}}}}, {"name": "StatefulPartitionedCall/Reshape_4", "op": "Const", "attr": {"value": {"tensor": {"dtype": "DT_FLOAT", "tensorShape": {"dim": [{"size": "3"}, {"size": "3"}, {"size": "192"}, {"size": "1"}]}}}, "dtype": {"type": "DT_FLOAT"}}}, {"name": "unknown_26", "op": "Const", "attr": {"value": {"tensor": {"dtype": "DT_FLOAT", "tensorShape": {"dim": [{"size": "192"}]}}}, "dtype": {"type": "DT_FLOAT"}}}, {"name": "StatefulPartitionedCall/transpose_41/perm", "op": "Const", "attr": {"dtype": {"type": "DT_INT32"}, "value": {"tensor": {"dtype": "DT_INT32", "tensorShape": {"dim": [{"size": "4"}]}}}}}, {"name": "StatefulPartitionedCall/onnx_tf_prefix_Constant_43", "op": "Const", "attr": {"value": {"tensor": {"dtype": "DT_FLOAT", "tensorShape": {}}}, "dtype": {"type": "DT_FLOAT"}}}, {"name": "StatefulPartitionedCall/onnx_tf_prefix_Constant_42", "op": "Const", "attr": {"value": {"tensor": {"dtype": "DT_FLOAT", "tensorShape": {}}}, "dtype": {"type": "DT_FLOAT"}}}, {"name": "StatefulPartitionedCall/transpose_43/perm", "op": "Const", "attr": {"dtype": {"type": "DT_INT32"}, "value": {"tensor": {"dtype": "DT_INT32", "tensorShape": {"dim": [{"size": "4"}]}}}}}, {"name": "StatefulPartitionedCall/split_9", "op": "Const", "attr": {"value": {"tensor": {"dtype": "DT_FLOAT", "tensorShape": {"dim": [{"size": "1"}, {"size": "1"}, {"size": "192"}, {"size": "32"}]}}}, "dtype": {"type": "DT_FLOAT"}}}, {"name": "unknown_28", "op": "Const", "attr": {"dtype": {"type": "DT_FLOAT"}, "value": {"tensor": {"dtype": "DT_FLOAT", "tensorShape": {"dim": [{"size": "32"}]}}}}}, {"name": "StatefulPartitionedCall/transpose_44/perm", "op": "Const", "attr": {"dtype": {"type": "DT_INT32"}, "value": {"tensor": {"dtype": "DT_INT32", "tensorShape": {"dim": [{"size": "4"}]}}}}}, {"name": "StatefulPartitionedCall/transpose_46/perm", "op": "Const", "attr": {"value": {"tensor": {"dtype": "DT_INT32", "tensorShape": {"dim": [{"size": "4"}]}}}, "dtype": {"type": "DT_INT32"}}}, {"name": "StatefulPartitionedCall/split_10", "op": "Const", "attr": {"dtype": {"type": "DT_FLOAT"}, "value": {"tensor": {"dtype": "DT_FLOAT", "tensorShape": {"dim": [{"size": "1"}, {"size": "1"}, {"size": "32"}, {"size": "192"}]}}}}}, {"name": "unknown_30", "op": "Const", "attr": {"dtype": {"type": "DT_FLOAT"}, "value": {"tensor": {"dtype": "DT_FLOAT", "tensorShape": {"dim": [{"size": "192"}]}}}}}, {"name": "StatefulPartitionedCall/transpose_47/perm", "op": "Const", "attr": {"dtype": {"type": "DT_INT32"}, "value": {"tensor": {"dtype": "DT_INT32", "tensorShape": {"dim": [{"size": "4"}]}}}}}, {"name": "StatefulPartitionedCall/onnx_tf_prefix_Constant_49", "op": "Const", "attr": {"value": {"tensor": {"dtype": "DT_FLOAT", "tensorShape": {}}}, "dtype": {"type": "DT_FLOAT"}}}, {"name": "StatefulPartitionedCall/onnx_tf_prefix_Constant_48", "op": "Const", "attr": {"value": {"tensor": {"dtype": "DT_FLOAT", "tensorShape": {}}}, "dtype": {"type": "DT_FLOAT"}}}, {"name": "StatefulPartitionedCall/Const_6", "op": "Const", "attr": {"value": {"tensor": {"dtype": "DT_INT32", "tensorShape": {"dim": [{"size": "4"}, {"size": "2"}]}}}, "dtype": {"type": "DT_INT32"}}}, {"name": "StatefulPartitionedCall/transpose_49/perm", "op": "Const", "attr": {"dtype": {"type": "DT_INT32"}, "value": {"tensor": {"dtype": "DT_INT32", "tensorShape": {"dim": [{"size": "4"}]}}}}}, {"name": "StatefulPartitionedCall/Reshape_5", "op": "Const", "attr": {"dtype": {"type": "DT_FLOAT"}, "value": {"tensor": {"dtype": "DT_FLOAT", "tensorShape": {"dim": [{"size": "3"}, {"size": "3"}, {"size": "192"}, {"size": "1"}]}}}}}, {"name": "unknown_32", "op": "Const", "attr": {"dtype": {"type": "DT_FLOAT"}, "value": {"tensor": {"dtype": "DT_FLOAT", "tensorShape": {"dim": [{"size": "192"}]}}}}}, {"name": "StatefulPartitionedCall/transpose_50/perm", "op": "Const", "attr": {"dtype": {"type": "DT_INT32"}, "value": {"tensor": {"dtype": "DT_INT32", "tensorShape": {"dim": [{"size": "4"}]}}}}}, {"name": "StatefulPartitionedCall/onnx_tf_prefix_Constant_53", "op": "Const", "attr": {"dtype": {"type": "DT_FLOAT"}, "value": {"tensor": {"dtype": "DT_FLOAT", "tensorShape": {}}}}}, {"name": "StatefulPartitionedCall/onnx_tf_prefix_Constant_52", "op": "Const", "attr": {"dtype": {"type": "DT_FLOAT"}, "value": {"tensor": {"dtype": "DT_FLOAT", "tensorShape": {}}}}}, {"name": "StatefulPartitionedCall/transpose_52/perm", "op": "Const", "attr": {"value": {"tensor": {"dtype": "DT_INT32", "tensorShape": {"dim": [{"size": "4"}]}}}, "dtype": {"type": "DT_INT32"}}}, {"name": "StatefulPartitionedCall/split_11", "op": "Const", "attr": {"dtype": {"type": "DT_FLOAT"}, "value": {"tensor": {"dtype": "DT_FLOAT", "tensorShape": {"dim": [{"size": "1"}, {"size": "1"}, {"size": "192"}, {"size": "32"}]}}}}}, {"name": "unknown_34", "op": "Const", "attr": {"dtype": {"type": "DT_FLOAT"}, "value": {"tensor": {"dtype": "DT_FLOAT", "tensorShape": {"dim": [{"size": "32"}]}}}}}, {"name": "StatefulPartitionedCall/transpose_53/perm", "op": "Const", "attr": {"value": {"tensor": {"dtype": "DT_INT32", "tensorShape": {"dim": [{"size": "4"}]}}}, "dtype": {"type": "DT_INT32"}}}, {"name": "StatefulPartitionedCall/transpose_55/perm", "op": "Const", "attr": {"value": {"tensor": {"dtype": "DT_INT32", "tensorShape": {"dim": [{"size": "4"}]}}}, "dtype": {"type": "DT_INT32"}}}, {"name": "StatefulPartitionedCall/split_12", "op": "Const", "attr": {"dtype": {"type": "DT_FLOAT"}, "value": {"tensor": {"dtype": "DT_FLOAT", "tensorShape": {"dim": [{"size": "1"}, {"size": "1"}, {"size": "32"}, {"size": "192"}]}}}}}, {"name": "unknown_36", "op": "Const", "attr": {"dtype": {"type": "DT_FLOAT"}, "value": {"tensor": {"dtype": "DT_FLOAT", "tensorShape": {"dim": [{"size": "192"}]}}}}}, {"name": "StatefulPartitionedCall/transpose_56/perm", "op": "Const", "attr": {"dtype": {"type": "DT_INT32"}, "value": {"tensor": {"dtype": "DT_INT32", "tensorShape": {"dim": [{"size": "4"}]}}}}}, {"name": "StatefulPartitionedCall/onnx_tf_prefix_Constant_59", "op": "Const", "attr": {"dtype": {"type": "DT_FLOAT"}, "value": {"tensor": {"dtype": "DT_FLOAT", "tensorShape": {}}}}}, {"name": "StatefulPartitionedCall/onnx_tf_prefix_Constant_58", "op": "Const", "attr": {"dtype": {"type": "DT_FLOAT"}, "value": {"tensor": {"dtype": "DT_FLOAT", "tensorShape": {}}}}}, {"name": "StatefulPartitionedCall/Const_7", "op": "Const", "attr": {"value": {"tensor": {"dtype": "DT_INT32", "tensorShape": {"dim": [{"size": "4"}, {"size": "2"}]}}}, "dtype": {"type": "DT_INT32"}}}, {"name": "StatefulPartitionedCall/transpose_58/perm", "op": "Const", "attr": {"dtype": {"type": "DT_INT32"}, "value": {"tensor": {"dtype": "DT_INT32", "tensorShape": {"dim": [{"size": "4"}]}}}}}, {"name": "StatefulPartitionedCall/Reshape_6", "op": "Const", "attr": {"value": {"tensor": {"dtype": "DT_FLOAT", "tensorShape": {"dim": [{"size": "3"}, {"size": "3"}, {"size": "192"}, {"size": "1"}]}}}, "dtype": {"type": "DT_FLOAT"}}}, {"name": "unknown_38", "op": "Const", "attr": {"value": {"tensor": {"dtype": "DT_FLOAT", "tensorShape": {"dim": [{"size": "192"}]}}}, "dtype": {"type": "DT_FLOAT"}}}, {"name": "StatefulPartitionedCall/transpose_59/perm", "op": "Const", "attr": {"dtype": {"type": "DT_INT32"}, "value": {"tensor": {"dtype": "DT_INT32", "tensorShape": {"dim": [{"size": "4"}]}}}}}, {"name": "StatefulPartitionedCall/onnx_tf_prefix_Constant_63", "op": "Const", "attr": {"value": {"tensor": {"dtype": "DT_FLOAT", "tensorShape": {}}}, "dtype": {"type": "DT_FLOAT"}}}, {"name": "StatefulPartitionedCall/onnx_tf_prefix_Constant_62", "op": "Const", "attr": {"value": {"tensor": {"dtype": "DT_FLOAT", "tensorShape": {}}}, "dtype": {"type": "DT_FLOAT"}}}, {"name": "StatefulPartitionedCall/transpose_61/perm", "op": "Const", "attr": {"value": {"tensor": {"dtype": "DT_INT32", "tensorShape": {"dim": [{"size": "4"}]}}}, "dtype": {"type": "DT_INT32"}}}, {"name": "StatefulPartitionedCall/split_13", "op": "Const", "attr": {"dtype": {"type": "DT_FLOAT"}, "value": {"tensor": {"dtype": "DT_FLOAT", "tensorShape": {"dim": [{"size": "1"}, {"size": "1"}, {"size": "192"}, {"size": "64"}]}}}}}, {"name": "unknown_40", "op": "Const", "attr": {"dtype": {"type": "DT_FLOAT"}, "value": {"tensor": {"dtype": "DT_FLOAT", "tensorShape": {"dim": [{"size": "64"}]}}}}}, {"name": "StatefulPartitionedCall/split_14", "op": "Const", "attr": {"value": {"tensor": {"dtype": "DT_FLOAT", "tensorShape": {"dim": [{"size": "1"}, {"size": "1"}, {"size": "64"}, {"size": "384"}]}}}, "dtype": {"type": "DT_FLOAT"}}}, {"name": "unknown_42", "op": "Const", "attr": {"value": {"tensor": {"dtype": "DT_FLOAT", "tensorShape": {"dim": [{"size": "384"}]}}}, "dtype": {"type": "DT_FLOAT"}}}, {"name": "StatefulPartitionedCall/transpose_65/perm", "op": "Const", "attr": {"dtype": {"type": "DT_INT32"}, "value": {"tensor": {"dtype": "DT_INT32", "tensorShape": {"dim": [{"size": "4"}]}}}}}, {"name": "StatefulPartitionedCall/onnx_tf_prefix_Constant_68", "op": "Const", "attr": {"value": {"tensor": {"dtype": "DT_FLOAT", "tensorShape": {}}}, "dtype": {"type": "DT_FLOAT"}}}, {"name": "StatefulPartitionedCall/onnx_tf_prefix_Constant_67", "op": "Const", "attr": {"value": {"tensor": {"dtype": "DT_FLOAT", "tensorShape": {}}}, "dtype": {"type": "DT_FLOAT"}}}, {"name": "StatefulPartitionedCall/Const_8", "op": "Const", "attr": {"value": {"tensor": {"dtype": "DT_INT32", "tensorShape": {"dim": [{"size": "4"}, {"size": "2"}]}}}, "dtype": {"type": "DT_INT32"}}}, {"name": "StatefulPartitionedCall/transpose_67/perm", "op": "Const", "attr": {"value": {"tensor": {"dtype": "DT_INT32", "tensorShape": {"dim": [{"size": "4"}]}}}, "dtype": {"type": "DT_INT32"}}}, {"name": "StatefulPartitionedCall/Reshape_7", "op": "Const", "attr": {"dtype": {"type": "DT_FLOAT"}, "value": {"tensor": {"dtype": "DT_FLOAT", "tensorShape": {"dim": [{"size": "3"}, {"size": "3"}, {"size": "384"}, {"size": "1"}]}}}}}, {"name": "unknown_44", "op": "Const", "attr": {"value": {"tensor": {"dtype": "DT_FLOAT", "tensorShape": {"dim": [{"size": "384"}]}}}, "dtype": {"type": "DT_FLOAT"}}}, {"name": "StatefulPartitionedCall/transpose_68/perm", "op": "Const", "attr": {"value": {"tensor": {"dtype": "DT_INT32", "tensorShape": {"dim": [{"size": "4"}]}}}, "dtype": {"type": "DT_INT32"}}}, {"name": "StatefulPartitionedCall/onnx_tf_prefix_Constant_72", "op": "Const", "attr": {"dtype": {"type": "DT_FLOAT"}, "value": {"tensor": {"dtype": "DT_FLOAT", "tensorShape": {}}}}}, {"name": "StatefulPartitionedCall/onnx_tf_prefix_Constant_71", "op": "Const", "attr": {"value": {"tensor": {"dtype": "DT_FLOAT", "tensorShape": {}}}, "dtype": {"type": "DT_FLOAT"}}}, {"name": "StatefulPartitionedCall/transpose_70/perm", "op": "Const", "attr": {"value": {"tensor": {"dtype": "DT_INT32", "tensorShape": {"dim": [{"size": "4"}]}}}, "dtype": {"type": "DT_INT32"}}}, {"name": "StatefulPartitionedCall/split_15", "op": "Const", "attr": {"dtype": {"type": "DT_FLOAT"}, "value": {"tensor": {"dtype": "DT_FLOAT", "tensorShape": {"dim": [{"size": "1"}, {"size": "1"}, {"size": "384"}, {"size": "64"}]}}}}}, {"name": "unknown_46", "op": "Const", "attr": {"value": {"tensor": {"dtype": "DT_FLOAT", "tensorShape": {"dim": [{"size": "64"}]}}}, "dtype": {"type": "DT_FLOAT"}}}, {"name": "StatefulPartitionedCall/transpose_71/perm", "op": "Const", "attr": {"dtype": {"type": "DT_INT32"}, "value": {"tensor": {"dtype": "DT_INT32", "tensorShape": {"dim": [{"size": "4"}]}}}}}, {"name": "StatefulPartitionedCall/transpose_73/perm", "op": "Const", "attr": {"dtype": {"type": "DT_INT32"}, "value": {"tensor": {"dtype": "DT_INT32", "tensorShape": {"dim": [{"size": "4"}]}}}}}, {"name": "StatefulPartitionedCall/split_16", "op": "Const", "attr": {"dtype": {"type": "DT_FLOAT"}, "value": {"tensor": {"dtype": "DT_FLOAT", "tensorShape": {"dim": [{"size": "1"}, {"size": "1"}, {"size": "64"}, {"size": "384"}]}}}}}, {"name": "unknown_48", "op": "Const", "attr": {"dtype": {"type": "DT_FLOAT"}, "value": {"tensor": {"dtype": "DT_FLOAT", "tensorShape": {"dim": [{"size": "384"}]}}}}}, {"name": "StatefulPartitionedCall/transpose_74/perm", "op": "Const", "attr": {"dtype": {"type": "DT_INT32"}, "value": {"tensor": {"dtype": "DT_INT32", "tensorShape": {"dim": [{"size": "4"}]}}}}}, {"name": "StatefulPartitionedCall/onnx_tf_prefix_Constant_78", "op": "Const", "attr": {"value": {"tensor": {"dtype": "DT_FLOAT", "tensorShape": {}}}, "dtype": {"type": "DT_FLOAT"}}}, {"name": "StatefulPartitionedCall/onnx_tf_prefix_Constant_77", "op": "Const", "attr": {"dtype": {"type": "DT_FLOAT"}, "value": {"tensor": {"dtype": "DT_FLOAT", "tensorShape": {}}}}}, {"name": "StatefulPartitionedCall/Const_9", "op": "Const", "attr": {"value": {"tensor": {"dtype": "DT_INT32", "tensorShape": {"dim": [{"size": "4"}, {"size": "2"}]}}}, "dtype": {"type": "DT_INT32"}}}, {"name": "StatefulPartitionedCall/transpose_76/perm", "op": "Const", "attr": {"dtype": {"type": "DT_INT32"}, "value": {"tensor": {"dtype": "DT_INT32", "tensorShape": {"dim": [{"size": "4"}]}}}}}, {"name": "StatefulPartitionedCall/Reshape_8", "op": "Const", "attr": {"value": {"tensor": {"dtype": "DT_FLOAT", "tensorShape": {"dim": [{"size": "3"}, {"size": "3"}, {"size": "384"}, {"size": "1"}]}}}, "dtype": {"type": "DT_FLOAT"}}}, {"name": "unknown_50", "op": "Const", "attr": {"dtype": {"type": "DT_FLOAT"}, "value": {"tensor": {"dtype": "DT_FLOAT", "tensorShape": {"dim": [{"size": "384"}]}}}}}, {"name": "StatefulPartitionedCall/transpose_77/perm", "op": "Const", "attr": {"value": {"tensor": {"dtype": "DT_INT32", "tensorShape": {"dim": [{"size": "4"}]}}}, "dtype": {"type": "DT_INT32"}}}, {"name": "StatefulPartitionedCall/onnx_tf_prefix_Constant_82", "op": "Const", "attr": {"dtype": {"type": "DT_FLOAT"}, "value": {"tensor": {"dtype": "DT_FLOAT", "tensorShape": {}}}}}, {"name": "StatefulPartitionedCall/onnx_tf_prefix_Constant_81", "op": "Const", "attr": {"dtype": {"type": "DT_FLOAT"}, "value": {"tensor": {"dtype": "DT_FLOAT", "tensorShape": {}}}}}, {"name": "StatefulPartitionedCall/transpose_79/perm", "op": "Const", "attr": {"value": {"tensor": {"dtype": "DT_INT32", "tensorShape": {"dim": [{"size": "4"}]}}}, "dtype": {"type": "DT_INT32"}}}, {"name": "StatefulPartitionedCall/split_17", "op": "Const", "attr": {"value": {"tensor": {"dtype": "DT_FLOAT", "tensorShape": {"dim": [{"size": "1"}, {"size": "1"}, {"size": "384"}, {"size": "64"}]}}}, "dtype": {"type": "DT_FLOAT"}}}, {"name": "unknown_52", "op": "Const", "attr": {"dtype": {"type": "DT_FLOAT"}, "value": {"tensor": {"dtype": "DT_FLOAT", "tensorShape": {"dim": [{"size": "64"}]}}}}}, {"name": "StatefulPartitionedCall/transpose_80/perm", "op": "Const", "attr": {"dtype": {"type": "DT_INT32"}, "value": {"tensor": {"dtype": "DT_INT32", "tensorShape": {"dim": [{"size": "4"}]}}}}}, {"name": "StatefulPartitionedCall/transpose_82/perm", "op": "Const", "attr": {"dtype": {"type": "DT_INT32"}, "value": {"tensor": {"dtype": "DT_INT32", "tensorShape": {"dim": [{"size": "4"}]}}}}}, {"name": "StatefulPartitionedCall/split_18", "op": "Const", "attr": {"dtype": {"type": "DT_FLOAT"}, "value": {"tensor": {"dtype": "DT_FLOAT", "tensorShape": {"dim": [{"size": "1"}, {"size": "1"}, {"size": "64"}, {"size": "384"}]}}}}}, {"name": "unknown_54", "op": "Const", "attr": {"value": {"tensor": {"dtype": "DT_FLOAT", "tensorShape": {"dim": [{"size": "384"}]}}}, "dtype": {"type": "DT_FLOAT"}}}, {"name": "StatefulPartitionedCall/transpose_83/perm", "op": "Const", "attr": {"dtype": {"type": "DT_INT32"}, "value": {"tensor": {"dtype": "DT_INT32", "tensorShape": {"dim": [{"size": "4"}]}}}}}, {"name": "StatefulPartitionedCall/onnx_tf_prefix_Constant_88", "op": "Const", "attr": {"value": {"tensor": {"dtype": "DT_FLOAT", "tensorShape": {}}}, "dtype": {"type": "DT_FLOAT"}}}, {"name": "StatefulPartitionedCall/onnx_tf_prefix_Constant_87", "op": "Const", "attr": {"value": {"tensor": {"dtype": "DT_FLOAT", "tensorShape": {}}}, "dtype": {"type": "DT_FLOAT"}}}, {"name": "StatefulPartitionedCall/Const_10", "op": "Const", "attr": {"dtype": {"type": "DT_INT32"}, "value": {"tensor": {"dtype": "DT_INT32", "tensorShape": {"dim": [{"size": "4"}, {"size": "2"}]}}}}}, {"name": "StatefulPartitionedCall/transpose_85/perm", "op": "Const", "attr": {"dtype": {"type": "DT_INT32"}, "value": {"tensor": {"dtype": "DT_INT32", "tensorShape": {"dim": [{"size": "4"}]}}}}}, {"name": "StatefulPartitionedCall/Reshape_9", "op": "Const", "attr": {"value": {"tensor": {"dtype": "DT_FLOAT", "tensorShape": {"dim": [{"size": "3"}, {"size": "3"}, {"size": "384"}, {"size": "1"}]}}}, "dtype": {"type": "DT_FLOAT"}}}, {"name": "unknown_56", "op": "Const", "attr": {"dtype": {"type": "DT_FLOAT"}, "value": {"tensor": {"dtype": "DT_FLOAT", "tensorShape": {"dim": [{"size": "384"}]}}}}}, {"name": "StatefulPartitionedCall/transpose_86/perm", "op": "Const", "attr": {"dtype": {"type": "DT_INT32"}, "value": {"tensor": {"dtype": "DT_INT32", "tensorShape": {"dim": [{"size": "4"}]}}}}}, {"name": "StatefulPartitionedCall/onnx_tf_prefix_Constant_92", "op": "Const", "attr": {"value": {"tensor": {"dtype": "DT_FLOAT", "tensorShape": {}}}, "dtype": {"type": "DT_FLOAT"}}}, {"name": "StatefulPartitionedCall/onnx_tf_prefix_Constant_91", "op": "Const", "attr": {"dtype": {"type": "DT_FLOAT"}, "value": {"tensor": {"dtype": "DT_FLOAT", "tensorShape": {}}}}}, {"name": "StatefulPartitionedCall/transpose_88/perm", "op": "Const", "attr": {"dtype": {"type": "DT_INT32"}, "value": {"tensor": {"dtype": "DT_INT32", "tensorShape": {"dim": [{"size": "4"}]}}}}}, {"name": "StatefulPartitionedCall/split_19", "op": "Const", "attr": {"value": {"tensor": {"dtype": "DT_FLOAT", "tensorShape": {"dim": [{"size": "1"}, {"size": "1"}, {"size": "384"}, {"size": "64"}]}}}, "dtype": {"type": "DT_FLOAT"}}}, {"name": "unknown_58", "op": "Const", "attr": {"dtype": {"type": "DT_FLOAT"}, "value": {"tensor": {"dtype": "DT_FLOAT", "tensorShape": {"dim": [{"size": "64"}]}}}}}, {"name": "StatefulPartitionedCall/transpose_89/perm", "op": "Const", "attr": {"dtype": {"type": "DT_INT32"}, "value": {"tensor": {"dtype": "DT_INT32", "tensorShape": {"dim": [{"size": "4"}]}}}}}, {"name": "StatefulPartitionedCall/transpose_91/perm", "op": "Const", "attr": {"value": {"tensor": {"dtype": "DT_INT32", "tensorShape": {"dim": [{"size": "4"}]}}}, "dtype": {"type": "DT_INT32"}}}, {"name": "StatefulPartitionedCall/split_20", "op": "Const", "attr": {"value": {"tensor": {"dtype": "DT_FLOAT", "tensorShape": {"dim": [{"size": "1"}, {"size": "1"}, {"size": "64"}, {"size": "384"}]}}}, "dtype": {"type": "DT_FLOAT"}}}, {"name": "unknown_60", "op": "Const", "attr": {"dtype": {"type": "DT_FLOAT"}, "value": {"tensor": {"dtype": "DT_FLOAT", "tensorShape": {"dim": [{"size": "384"}]}}}}}, {"name": "StatefulPartitionedCall/transpose_92/perm", "op": "Const", "attr": {"dtype": {"type": "DT_INT32"}, "value": {"tensor": {"dtype": "DT_INT32", "tensorShape": {"dim": [{"size": "4"}]}}}}}, {"name": "StatefulPartitionedCall/onnx_tf_prefix_Constant_98", "op": "Const", "attr": {"value": {"tensor": {"dtype": "DT_FLOAT", "tensorShape": {}}}, "dtype": {"type": "DT_FLOAT"}}}, {"name": "StatefulPartitionedCall/onnx_tf_prefix_Constant_97", "op": "Const", "attr": {"dtype": {"type": "DT_FLOAT"}, "value": {"tensor": {"dtype": "DT_FLOAT", "tensorShape": {}}}}}, {"name": "StatefulPartitionedCall/Const_11", "op": "Const", "attr": {"value": {"tensor": {"dtype": "DT_INT32", "tensorShape": {"dim": [{"size": "4"}, {"size": "2"}]}}}, "dtype": {"type": "DT_INT32"}}}, {"name": "StatefulPartitionedCall/transpose_94/perm", "op": "Const", "attr": {"value": {"tensor": {"dtype": "DT_INT32", "tensorShape": {"dim": [{"size": "4"}]}}}, "dtype": {"type": "DT_INT32"}}}, {"name": "StatefulPartitionedCall/Reshape_10", "op": "Const", "attr": {"dtype": {"type": "DT_FLOAT"}, "value": {"tensor": {"dtype": "DT_FLOAT", "tensorShape": {"dim": [{"size": "3"}, {"size": "3"}, {"size": "384"}, {"size": "1"}]}}}}}, {"name": "unknown_62", "op": "Const", "attr": {"dtype": {"type": "DT_FLOAT"}, "value": {"tensor": {"dtype": "DT_FLOAT", "tensorShape": {"dim": [{"size": "384"}]}}}}}, {"name": "StatefulPartitionedCall/transpose_95/perm", "op": "Const", "attr": {"value": {"tensor": {"dtype": "DT_INT32", "tensorShape": {"dim": [{"size": "4"}]}}}, "dtype": {"type": "DT_INT32"}}}, {"name": "StatefulPartitionedCall/onnx_tf_prefix_Constant_102", "op": "Const", "attr": {"dtype": {"type": "DT_FLOAT"}, "value": {"tensor": {"dtype": "DT_FLOAT", "tensorShape": {}}}}}, {"name": "StatefulPartitionedCall/onnx_tf_prefix_Constant_101", "op": "Const", "attr": {"dtype": {"type": "DT_FLOAT"}, "value": {"tensor": {"dtype": "DT_FLOAT", "tensorShape": {}}}}}, {"name": "StatefulPartitionedCall/transpose_97/perm", "op": "Const", "attr": {"value": {"tensor": {"dtype": "DT_INT32", "tensorShape": {"dim": [{"size": "4"}]}}}, "dtype": {"type": "DT_INT32"}}}, {"name": "StatefulPartitionedCall/split_21", "op": "Const", "attr": {"dtype": {"type": "DT_FLOAT"}, "value": {"tensor": {"dtype": "DT_FLOAT", "tensorShape": {"dim": [{"size": "1"}, {"size": "1"}, {"size": "384"}, {"size": "96"}]}}}}}, {"name": "unknown_64", "op": "Const", "attr": {"dtype": {"type": "DT_FLOAT"}, "value": {"tensor": {"dtype": "DT_FLOAT", "tensorShape": {"dim": [{"size": "96"}]}}}}}, {"name": "StatefulPartitionedCall/split_22", "op": "Const", "attr": {"value": {"tensor": {"dtype": "DT_FLOAT", "tensorShape": {"dim": [{"size": "1"}, {"size": "1"}, {"size": "96"}, {"size": "576"}]}}}, "dtype": {"type": "DT_FLOAT"}}}, {"name": "unknown_66", "op": "Const", "attr": {"value": {"tensor": {"dtype": "DT_FLOAT", "tensorShape": {"dim": [{"size": "576"}]}}}, "dtype": {"type": "DT_FLOAT"}}}, {"name": "StatefulPartitionedCall/transpose_101/perm", "op": "Const", "attr": {"dtype": {"type": "DT_INT32"}, "value": {"tensor": {"dtype": "DT_INT32", "tensorShape": {"dim": [{"size": "4"}]}}}}}, {"name": "StatefulPartitionedCall/onnx_tf_prefix_Constant_107", "op": "Const", "attr": {"value": {"tensor": {"dtype": "DT_FLOAT", "tensorShape": {}}}, "dtype": {"type": "DT_FLOAT"}}}, {"name": "StatefulPartitionedCall/onnx_tf_prefix_Constant_106", "op": "Const", "attr": {"value": {"tensor": {"dtype": "DT_FLOAT", "tensorShape": {}}}, "dtype": {"type": "DT_FLOAT"}}}, {"name": "StatefulPartitionedCall/Const_12", "op": "Const", "attr": {"value": {"tensor": {"dtype": "DT_INT32", "tensorShape": {"dim": [{"size": "4"}, {"size": "2"}]}}}, "dtype": {"type": "DT_INT32"}}}, {"name": "StatefulPartitionedCall/transpose_103/perm", "op": "Const", "attr": {"value": {"tensor": {"dtype": "DT_INT32", "tensorShape": {"dim": [{"size": "4"}]}}}, "dtype": {"type": "DT_INT32"}}}, {"name": "StatefulPartitionedCall/Reshape_11", "op": "Const", "attr": {"dtype": {"type": "DT_FLOAT"}, "value": {"tensor": {"dtype": "DT_FLOAT", "tensorShape": {"dim": [{"size": "3"}, {"size": "3"}, {"size": "576"}, {"size": "1"}]}}}}}, {"name": "unknown_68", "op": "Const", "attr": {"dtype": {"type": "DT_FLOAT"}, "value": {"tensor": {"dtype": "DT_FLOAT", "tensorShape": {"dim": [{"size": "576"}]}}}}}, {"name": "StatefulPartitionedCall/transpose_104/perm", "op": "Const", "attr": {"value": {"tensor": {"dtype": "DT_INT32", "tensorShape": {"dim": [{"size": "4"}]}}}, "dtype": {"type": "DT_INT32"}}}, {"name": "StatefulPartitionedCall/onnx_tf_prefix_Constant_111", "op": "Const", "attr": {"value": {"tensor": {"dtype": "DT_FLOAT", "tensorShape": {}}}, "dtype": {"type": "DT_FLOAT"}}}, {"name": "StatefulPartitionedCall/onnx_tf_prefix_Constant_110", "op": "Const", "attr": {"value": {"tensor": {"dtype": "DT_FLOAT", "tensorShape": {}}}, "dtype": {"type": "DT_FLOAT"}}}, {"name": "StatefulPartitionedCall/transpose_106/perm", "op": "Const", "attr": {"dtype": {"type": "DT_INT32"}, "value": {"tensor": {"dtype": "DT_INT32", "tensorShape": {"dim": [{"size": "4"}]}}}}}, {"name": "StatefulPartitionedCall/split_23", "op": "Const", "attr": {"dtype": {"type": "DT_FLOAT"}, "value": {"tensor": {"dtype": "DT_FLOAT", "tensorShape": {"dim": [{"size": "1"}, {"size": "1"}, {"size": "576"}, {"size": "96"}]}}}}}, {"name": "unknown_70", "op": "Const", "attr": {"dtype": {"type": "DT_FLOAT"}, "value": {"tensor": {"dtype": "DT_FLOAT", "tensorShape": {"dim": [{"size": "96"}]}}}}}, {"name": "StatefulPartitionedCall/transpose_107/perm", "op": "Const", "attr": {"dtype": {"type": "DT_INT32"}, "value": {"tensor": {"dtype": "DT_INT32", "tensorShape": {"dim": [{"size": "4"}]}}}}}, {"name": "StatefulPartitionedCall/transpose_109/perm", "op": "Const", "attr": {"dtype": {"type": "DT_INT32"}, "value": {"tensor": {"dtype": "DT_INT32", "tensorShape": {"dim": [{"size": "4"}]}}}}}, {"name": "StatefulPartitionedCall/split_24", "op": "Const", "attr": {"dtype": {"type": "DT_FLOAT"}, "value": {"tensor": {"dtype": "DT_FLOAT", "tensorShape": {"dim": [{"size": "1"}, {"size": "1"}, {"size": "96"}, {"size": "576"}]}}}}}, {"name": "unknown_72", "op": "Const", "attr": {"value": {"tensor": {"dtype": "DT_FLOAT", "tensorShape": {"dim": [{"size": "576"}]}}}, "dtype": {"type": "DT_FLOAT"}}}, {"name": "StatefulPartitionedCall/transpose_110/perm", "op": "Const", "attr": {"value": {"tensor": {"dtype": "DT_INT32", "tensorShape": {"dim": [{"size": "4"}]}}}, "dtype": {"type": "DT_INT32"}}}, {"name": "StatefulPartitionedCall/onnx_tf_prefix_Constant_117", "op": "Const", "attr": {"value": {"tensor": {"dtype": "DT_FLOAT", "tensorShape": {}}}, "dtype": {"type": "DT_FLOAT"}}}, {"name": "StatefulPartitionedCall/onnx_tf_prefix_Constant_116", "op": "Const", "attr": {"dtype": {"type": "DT_FLOAT"}, "value": {"tensor": {"dtype": "DT_FLOAT", "tensorShape": {}}}}}, {"name": "StatefulPartitionedCall/Const_13", "op": "Const", "attr": {"dtype": {"type": "DT_INT32"}, "value": {"tensor": {"dtype": "DT_INT32", "tensorShape": {"dim": [{"size": "4"}, {"size": "2"}]}}}}}, {"name": "StatefulPartitionedCall/transpose_112/perm", "op": "Const", "attr": {"value": {"tensor": {"dtype": "DT_INT32", "tensorShape": {"dim": [{"size": "4"}]}}}, "dtype": {"type": "DT_INT32"}}}, {"name": "StatefulPartitionedCall/Reshape_12", "op": "Const", "attr": {"value": {"tensor": {"dtype": "DT_FLOAT", "tensorShape": {"dim": [{"size": "3"}, {"size": "3"}, {"size": "576"}, {"size": "1"}]}}}, "dtype": {"type": "DT_FLOAT"}}}, {"name": "unknown_74", "op": "Const", "attr": {"value": {"tensor": {"dtype": "DT_FLOAT", "tensorShape": {"dim": [{"size": "576"}]}}}, "dtype": {"type": "DT_FLOAT"}}}, {"name": "StatefulPartitionedCall/transpose_113/perm", "op": "Const", "attr": {"dtype": {"type": "DT_INT32"}, "value": {"tensor": {"dtype": "DT_INT32", "tensorShape": {"dim": [{"size": "4"}]}}}}}, {"name": "StatefulPartitionedCall/onnx_tf_prefix_Constant_121", "op": "Const", "attr": {"value": {"tensor": {"dtype": "DT_FLOAT", "tensorShape": {}}}, "dtype": {"type": "DT_FLOAT"}}}, {"name": "StatefulPartitionedCall/onnx_tf_prefix_Constant_120", "op": "Const", "attr": {"dtype": {"type": "DT_FLOAT"}, "value": {"tensor": {"dtype": "DT_FLOAT", "tensorShape": {}}}}}, {"name": "StatefulPartitionedCall/transpose_115/perm", "op": "Const", "attr": {"value": {"tensor": {"dtype": "DT_INT32", "tensorShape": {"dim": [{"size": "4"}]}}}, "dtype": {"type": "DT_INT32"}}}, {"name": "StatefulPartitionedCall/split_25", "op": "Const", "attr": {"dtype": {"type": "DT_FLOAT"}, "value": {"tensor": {"dtype": "DT_FLOAT", "tensorShape": {"dim": [{"size": "1"}, {"size": "1"}, {"size": "576"}, {"size": "96"}]}}}}}, {"name": "unknown_76", "op": "Const", "attr": {"dtype": {"type": "DT_FLOAT"}, "value": {"tensor": {"dtype": "DT_FLOAT", "tensorShape": {"dim": [{"size": "96"}]}}}}}, {"name": "StatefulPartitionedCall/transpose_116/perm", "op": "Const", "attr": {"value": {"tensor": {"dtype": "DT_INT32", "tensorShape": {"dim": [{"size": "4"}]}}}, "dtype": {"type": "DT_INT32"}}}, {"name": "StatefulPartitionedCall/transpose_118/perm", "op": "Const", "attr": {"dtype": {"type": "DT_INT32"}, "value": {"tensor": {"dtype": "DT_INT32", "tensorShape": {"dim": [{"size": "4"}]}}}}}, {"name": "StatefulPartitionedCall/split_26", "op": "Const", "attr": {"value": {"tensor": {"dtype": "DT_FLOAT", "tensorShape": {"dim": [{"size": "1"}, {"size": "1"}, {"size": "96"}, {"size": "576"}]}}}, "dtype": {"type": "DT_FLOAT"}}}, {"name": "unknown_78", "op": "Const", "attr": {"value": {"tensor": {"dtype": "DT_FLOAT", "tensorShape": {"dim": [{"size": "576"}]}}}, "dtype": {"type": "DT_FLOAT"}}}, {"name": "StatefulPartitionedCall/transpose_119/perm", "op": "Const", "attr": {"dtype": {"type": "DT_INT32"}, "value": {"tensor": {"dtype": "DT_INT32", "tensorShape": {"dim": [{"size": "4"}]}}}}}, {"name": "StatefulPartitionedCall/onnx_tf_prefix_Constant_127", "op": "Const", "attr": {"dtype": {"type": "DT_FLOAT"}, "value": {"tensor": {"dtype": "DT_FLOAT", "tensorShape": {}}}}}, {"name": "StatefulPartitionedCall/onnx_tf_prefix_Constant_126", "op": "Const", "attr": {"dtype": {"type": "DT_FLOAT"}, "value": {"tensor": {"dtype": "DT_FLOAT", "tensorShape": {}}}}}, {"name": "StatefulPartitionedCall/Const_14", "op": "Const", "attr": {"dtype": {"type": "DT_INT32"}, "value": {"tensor": {"dtype": "DT_INT32", "tensorShape": {"dim": [{"size": "4"}, {"size": "2"}]}}}}}, {"name": "StatefulPartitionedCall/transpose_121/perm", "op": "Const", "attr": {"dtype": {"type": "DT_INT32"}, "value": {"tensor": {"dtype": "DT_INT32", "tensorShape": {"dim": [{"size": "4"}]}}}}}, {"name": "StatefulPartitionedCall/Reshape_13", "op": "Const", "attr": {"dtype": {"type": "DT_FLOAT"}, "value": {"tensor": {"dtype": "DT_FLOAT", "tensorShape": {"dim": [{"size": "3"}, {"size": "3"}, {"size": "576"}, {"size": "1"}]}}}}}, {"name": "unknown_80", "op": "Const", "attr": {"value": {"tensor": {"dtype": "DT_FLOAT", "tensorShape": {"dim": [{"size": "576"}]}}}, "dtype": {"type": "DT_FLOAT"}}}, {"name": "StatefulPartitionedCall/transpose_122/perm", "op": "Const", "attr": {"dtype": {"type": "DT_INT32"}, "value": {"tensor": {"dtype": "DT_INT32", "tensorShape": {"dim": [{"size": "4"}]}}}}}, {"name": "StatefulPartitionedCall/onnx_tf_prefix_Constant_131", "op": "Const", "attr": {"dtype": {"type": "DT_FLOAT"}, "value": {"tensor": {"dtype": "DT_FLOAT", "tensorShape": {}}}}}, {"name": "StatefulPartitionedCall/onnx_tf_prefix_Constant_130", "op": "Const", "attr": {"dtype": {"type": "DT_FLOAT"}, "value": {"tensor": {"dtype": "DT_FLOAT", "tensorShape": {}}}}}, {"name": "StatefulPartitionedCall/transpose_124/perm", "op": "Const", "attr": {"value": {"tensor": {"dtype": "DT_INT32", "tensorShape": {"dim": [{"size": "4"}]}}}, "dtype": {"type": "DT_INT32"}}}, {"name": "StatefulPartitionedCall/split_27", "op": "Const", "attr": {"dtype": {"type": "DT_FLOAT"}, "value": {"tensor": {"dtype": "DT_FLOAT", "tensorShape": {"dim": [{"size": "1"}, {"size": "1"}, {"size": "576"}, {"size": "160"}]}}}}}, {"name": "unknown_82", "op": "Const", "attr": {"value": {"tensor": {"dtype": "DT_FLOAT", "tensorShape": {"dim": [{"size": "160"}]}}}, "dtype": {"type": "DT_FLOAT"}}}, {"name": "StatefulPartitionedCall/split_28", "op": "Const", "attr": {"value": {"tensor": {"dtype": "DT_FLOAT", "tensorShape": {"dim": [{"size": "1"}, {"size": "1"}, {"size": "160"}, {"size": "960"}]}}}, "dtype": {"type": "DT_FLOAT"}}}, {"name": "unknown_84", "op": "Const", "attr": {"value": {"tensor": {"dtype": "DT_FLOAT", "tensorShape": {"dim": [{"size": "960"}]}}}, "dtype": {"type": "DT_FLOAT"}}}, {"name": "StatefulPartitionedCall/transpose_128/perm", "op": "Const", "attr": {"value": {"tensor": {"dtype": "DT_INT32", "tensorShape": {"dim": [{"size": "4"}]}}}, "dtype": {"type": "DT_INT32"}}}, {"name": "StatefulPartitionedCall/onnx_tf_prefix_Constant_136", "op": "Const", "attr": {"dtype": {"type": "DT_FLOAT"}, "value": {"tensor": {"dtype": "DT_FLOAT", "tensorShape": {}}}}}, {"name": "StatefulPartitionedCall/onnx_tf_prefix_Constant_135", "op": "Const", "attr": {"value": {"tensor": {"dtype": "DT_FLOAT", "tensorShape": {}}}, "dtype": {"type": "DT_FLOAT"}}}, {"name": "StatefulPartitionedCall/Const_15", "op": "Const", "attr": {"value": {"tensor": {"dtype": "DT_INT32", "tensorShape": {"dim": [{"size": "4"}, {"size": "2"}]}}}, "dtype": {"type": "DT_INT32"}}}, {"name": "StatefulPartitionedCall/transpose_130/perm", "op": "Const", "attr": {"dtype": {"type": "DT_INT32"}, "value": {"tensor": {"dtype": "DT_INT32", "tensorShape": {"dim": [{"size": "4"}]}}}}}, {"name": "StatefulPartitionedCall/Reshape_14", "op": "Const", "attr": {"dtype": {"type": "DT_FLOAT"}, "value": {"tensor": {"dtype": "DT_FLOAT", "tensorShape": {"dim": [{"size": "3"}, {"size": "3"}, {"size": "960"}, {"size": "1"}]}}}}}, {"name": "unknown_86", "op": "Const", "attr": {"value": {"tensor": {"dtype": "DT_FLOAT", "tensorShape": {"dim": [{"size": "960"}]}}}, "dtype": {"type": "DT_FLOAT"}}}, {"name": "StatefulPartitionedCall/transpose_131/perm", "op": "Const", "attr": {"value": {"tensor": {"dtype": "DT_INT32", "tensorShape": {"dim": [{"size": "4"}]}}}, "dtype": {"type": "DT_INT32"}}}, {"name": "StatefulPartitionedCall/onnx_tf_prefix_Constant_140", "op": "Const", "attr": {"value": {"tensor": {"dtype": "DT_FLOAT", "tensorShape": {}}}, "dtype": {"type": "DT_FLOAT"}}}, {"name": "StatefulPartitionedCall/onnx_tf_prefix_Constant_139", "op": "Const", "attr": {"dtype": {"type": "DT_FLOAT"}, "value": {"tensor": {"dtype": "DT_FLOAT", "tensorShape": {}}}}}, {"name": "StatefulPartitionedCall/transpose_133/perm", "op": "Const", "attr": {"dtype": {"type": "DT_INT32"}, "value": {"tensor": {"dtype": "DT_INT32", "tensorShape": {"dim": [{"size": "4"}]}}}}}, {"name": "StatefulPartitionedCall/split_29", "op": "Const", "attr": {"value": {"tensor": {"dtype": "DT_FLOAT", "tensorShape": {"dim": [{"size": "1"}, {"size": "1"}, {"size": "960"}, {"size": "160"}]}}}, "dtype": {"type": "DT_FLOAT"}}}, {"name": "unknown_88", "op": "Const", "attr": {"dtype": {"type": "DT_FLOAT"}, "value": {"tensor": {"dtype": "DT_FLOAT", "tensorShape": {"dim": [{"size": "160"}]}}}}}, {"name": "StatefulPartitionedCall/transpose_134/perm", "op": "Const", "attr": {"value": {"tensor": {"dtype": "DT_INT32", "tensorShape": {"dim": [{"size": "4"}]}}}, "dtype": {"type": "DT_INT32"}}}, {"name": "StatefulPartitionedCall/transpose_136/perm", "op": "Const", "attr": {"value": {"tensor": {"dtype": "DT_INT32", "tensorShape": {"dim": [{"size": "4"}]}}}, "dtype": {"type": "DT_INT32"}}}, {"name": "StatefulPartitionedCall/split_30", "op": "Const", "attr": {"value": {"tensor": {"dtype": "DT_FLOAT", "tensorShape": {"dim": [{"size": "1"}, {"size": "1"}, {"size": "160"}, {"size": "960"}]}}}, "dtype": {"type": "DT_FLOAT"}}}, {"name": "unknown_90", "op": "Const", "attr": {"value": {"tensor": {"dtype": "DT_FLOAT", "tensorShape": {"dim": [{"size": "960"}]}}}, "dtype": {"type": "DT_FLOAT"}}}, {"name": "StatefulPartitionedCall/transpose_137/perm", "op": "Const", "attr": {"value": {"tensor": {"dtype": "DT_INT32", "tensorShape": {"dim": [{"size": "4"}]}}}, "dtype": {"type": "DT_INT32"}}}, {"name": "StatefulPartitionedCall/onnx_tf_prefix_Constant_146", "op": "Const", "attr": {"value": {"tensor": {"dtype": "DT_FLOAT", "tensorShape": {}}}, "dtype": {"type": "DT_FLOAT"}}}, {"name": "StatefulPartitionedCall/onnx_tf_prefix_Constant_145", "op": "Const", "attr": {"dtype": {"type": "DT_FLOAT"}, "value": {"tensor": {"dtype": "DT_FLOAT", "tensorShape": {}}}}}, {"name": "StatefulPartitionedCall/Const_16", "op": "Const", "attr": {"dtype": {"type": "DT_INT32"}, "value": {"tensor": {"dtype": "DT_INT32", "tensorShape": {"dim": [{"size": "4"}, {"size": "2"}]}}}}}, {"name": "StatefulPartitionedCall/transpose_139/perm", "op": "Const", "attr": {"dtype": {"type": "DT_INT32"}, "value": {"tensor": {"dtype": "DT_INT32", "tensorShape": {"dim": [{"size": "4"}]}}}}}, {"name": "StatefulPartitionedCall/Reshape_15", "op": "Const", "attr": {"value": {"tensor": {"dtype": "DT_FLOAT", "tensorShape": {"dim": [{"size": "3"}, {"size": "3"}, {"size": "960"}, {"size": "1"}]}}}, "dtype": {"type": "DT_FLOAT"}}}, {"name": "unknown_92", "op": "Const", "attr": {"dtype": {"type": "DT_FLOAT"}, "value": {"tensor": {"dtype": "DT_FLOAT", "tensorShape": {"dim": [{"size": "960"}]}}}}}, {"name": "StatefulPartitionedCall/transpose_140/perm", "op": "Const", "attr": {"value": {"tensor": {"dtype": "DT_INT32", "tensorShape": {"dim": [{"size": "4"}]}}}, "dtype": {"type": "DT_INT32"}}}, {"name": "StatefulPartitionedCall/onnx_tf_prefix_Constant_150", "op": "Const", "attr": {"value": {"tensor": {"dtype": "DT_FLOAT", "tensorShape": {}}}, "dtype": {"type": "DT_FLOAT"}}}, {"name": "StatefulPartitionedCall/onnx_tf_prefix_Constant_149", "op": "Const", "attr": {"dtype": {"type": "DT_FLOAT"}, "value": {"tensor": {"dtype": "DT_FLOAT", "tensorShape": {}}}}}, {"name": "StatefulPartitionedCall/transpose_142/perm", "op": "Const", "attr": {"value": {"tensor": {"dtype": "DT_INT32", "tensorShape": {"dim": [{"size": "4"}]}}}, "dtype": {"type": "DT_INT32"}}}, {"name": "StatefulPartitionedCall/split_31", "op": "Const", "attr": {"value": {"tensor": {"dtype": "DT_FLOAT", "tensorShape": {"dim": [{"size": "1"}, {"size": "1"}, {"size": "960"}, {"size": "160"}]}}}, "dtype": {"type": "DT_FLOAT"}}}, {"name": "unknown_94", "op": "Const", "attr": {"dtype": {"type": "DT_FLOAT"}, "value": {"tensor": {"dtype": "DT_FLOAT", "tensorShape": {"dim": [{"size": "160"}]}}}}}, {"name": "StatefulPartitionedCall/transpose_143/perm", "op": "Const", "attr": {"value": {"tensor": {"dtype": "DT_INT32", "tensorShape": {"dim": [{"size": "4"}]}}}, "dtype": {"type": "DT_INT32"}}}, {"name": "StatefulPartitionedCall/transpose_145/perm", "op": "Const", "attr": {"value": {"tensor": {"dtype": "DT_INT32", "tensorShape": {"dim": [{"size": "4"}]}}}, "dtype": {"type": "DT_INT32"}}}, {"name": "StatefulPartitionedCall/split_32", "op": "Const", "attr": {"value": {"tensor": {"dtype": "DT_FLOAT", "tensorShape": {"dim": [{"size": "1"}, {"size": "1"}, {"size": "160"}, {"size": "960"}]}}}, "dtype": {"type": "DT_FLOAT"}}}, {"name": "unknown_96", "op": "Const", "attr": {"dtype": {"type": "DT_FLOAT"}, "value": {"tensor": {"dtype": "DT_FLOAT", "tensorShape": {"dim": [{"size": "960"}]}}}}}, {"name": "StatefulPartitionedCall/transpose_146/perm", "op": "Const", "attr": {"dtype": {"type": "DT_INT32"}, "value": {"tensor": {"dtype": "DT_INT32", "tensorShape": {"dim": [{"size": "4"}]}}}}}, {"name": "StatefulPartitionedCall/onnx_tf_prefix_Constant_156", "op": "Const", "attr": {"dtype": {"type": "DT_FLOAT"}, "value": {"tensor": {"dtype": "DT_FLOAT", "tensorShape": {}}}}}, {"name": "StatefulPartitionedCall/onnx_tf_prefix_Constant_155", "op": "Const", "attr": {"value": {"tensor": {"dtype": "DT_FLOAT", "tensorShape": {}}}, "dtype": {"type": "DT_FLOAT"}}}, {"name": "StatefulPartitionedCall/Const_17", "op": "Const", "attr": {"value": {"tensor": {"dtype": "DT_INT32", "tensorShape": {"dim": [{"size": "4"}, {"size": "2"}]}}}, "dtype": {"type": "DT_INT32"}}}, {"name": "StatefulPartitionedCall/transpose_148/perm", "op": "Const", "attr": {"value": {"tensor": {"dtype": "DT_INT32", "tensorShape": {"dim": [{"size": "4"}]}}}, "dtype": {"type": "DT_INT32"}}}, {"name": "StatefulPartitionedCall/Reshape_16", "op": "Const", "attr": {"dtype": {"type": "DT_FLOAT"}, "value": {"tensor": {"dtype": "DT_FLOAT", "tensorShape": {"dim": [{"size": "3"}, {"size": "3"}, {"size": "960"}, {"size": "1"}]}}}}}, {"name": "unknown_98", "op": "Const", "attr": {"dtype": {"type": "DT_FLOAT"}, "value": {"tensor": {"dtype": "DT_FLOAT", "tensorShape": {"dim": [{"size": "960"}]}}}}}, {"name": "StatefulPartitionedCall/transpose_149/perm", "op": "Const", "attr": {"dtype": {"type": "DT_INT32"}, "value": {"tensor": {"dtype": "DT_INT32", "tensorShape": {"dim": [{"size": "4"}]}}}}}, {"name": "StatefulPartitionedCall/onnx_tf_prefix_Constant_160", "op": "Const", "attr": {"dtype": {"type": "DT_FLOAT"}, "value": {"tensor": {"dtype": "DT_FLOAT", "tensorShape": {}}}}}, {"name": "StatefulPartitionedCall/onnx_tf_prefix_Constant_159", "op": "Const", "attr": {"dtype": {"type": "DT_FLOAT"}, "value": {"tensor": {"dtype": "DT_FLOAT", "tensorShape": {}}}}}, {"name": "StatefulPartitionedCall/transpose_151/perm", "op": "Const", "attr": {"dtype": {"type": "DT_INT32"}, "value": {"tensor": {"dtype": "DT_INT32", "tensorShape": {"dim": [{"size": "4"}]}}}}}, {"name": "StatefulPartitionedCall/split_33", "op": "Const", "attr": {"value": {"tensor": {"dtype": "DT_FLOAT", "tensorShape": {"dim": [{"size": "1"}, {"size": "1"}, {"size": "960"}, {"size": "320"}]}}}, "dtype": {"type": "DT_FLOAT"}}}, {"name": "unknown_100", "op": "Const", "attr": {"value": {"tensor": {"dtype": "DT_FLOAT", "tensorShape": {"dim": [{"size": "320"}]}}}, "dtype": {"type": "DT_FLOAT"}}}, {"name": "StatefulPartitionedCall/split_34", "op": "Const", "attr": {"value": {"tensor": {"dtype": "DT_FLOAT", "tensorShape": {"dim": [{"size": "1"}, {"size": "1"}, {"size": "320"}, {"size": "1280"}]}}}, "dtype": {"type": "DT_FLOAT"}}}, {"name": "unknown_102", "op": "Const", "attr": {"value": {"tensor": {"dtype": "DT_FLOAT", "tensorShape": {"dim": [{"size": "1280"}]}}}, "dtype": {"type": "DT_FLOAT"}}}, {"name": "StatefulPartitionedCall/transpose_155/perm", "op": "Const", "attr": {"value": {"tensor": {"dtype": "DT_INT32", "tensorShape": {"dim": [{"size": "4"}]}}}, "dtype": {"type": "DT_INT32"}}}, {"name": "StatefulPartitionedCall/onnx_tf_prefix_Constant_165", "op": "Const", "attr": {"value": {"tensor": {"dtype": "DT_FLOAT", "tensorShape": {}}}, "dtype": {"type": "DT_FLOAT"}}}, {"name": "StatefulPartitionedCall/onnx_tf_prefix_Constant_164", "op": "Const", "attr": {"value": {"tensor": {"dtype": "DT_FLOAT", "tensorShape": {}}}, "dtype": {"type": "DT_FLOAT"}}}, {"name": "ConstantFolding/StatefulPartitionedCall/split_35-folded-1", "op": "Const", "attr": {"value": {"tensor": {"dtype": "DT_INT32", "tensorShape": {"dim": [{"size": "2"}]}}}, "dtype": {"type": "DT_INT32"}}}, {"name": "StatefulPartitionedCall/flatten/Const", "op": "Const", "attr": {"dtype": {"type": "DT_INT32"}, "value": {"tensor": {"dtype": "DT_INT32", "tensorShape": {"dim": [{"size": "2"}]}}}}}, {"name": "StatefulPartitionedCall/transpose_156", "op": "Const", "attr": {"dtype": {"type": "DT_FLOAT"}, "value": {"tensor": {"dtype": "DT_FLOAT", "tensorShape": {"dim": [{"size": "1280"}, {"size": "5"}]}}}}}, {"name": "StatefulPartitionedCall/mul_1", "op": "Const", "attr": {"value": {"tensor": {"dtype": "DT_FLOAT", "tensorShape": {"dim": [{"size": "5"}]}}}, "dtype": {"type": "DT_FLOAT"}}}, {"name": "StatefulPartitionedCall/assert_equal_1/Assert/AssertGuard/pivot_t/_114", "op": "Const", "attr": {"value": {"tensor": {"dtype": "DT_BOOL", "tensorShape": {}}}, "dtype": {"type": "DT_BOOL"}}}, {"name": "StatefulPartitionedCall/assert_equal_1/y", "op": "Const", "attr": {"dtype": {"type": "DT_BOOL"}, "value": {"tensor": {"dtype": "DT_BOOL", "tensorShape": {}}}}}, {"name": "StatefulPartitionedCall/LogicalAnd", "op": "Const", "attr": {"dtype": {"type": "DT_BOOL"}, "value": {"tensor": {"dtype": "DT_BOOL", "tensorShape": {}}}}}, {"name": "StatefulPartitionedCall/assert_equal_1/All", "op": "Const", "attr": {"dtype": {"type": "DT_BOOL"}, "value": {"tensor": {"dtype": "DT_BOOL", "tensorShape": {}}}}}, {"name": "input", "op": "Placeholder", "attr": {"dtype": {"type": "DT_FLOAT"}, "shape": {"shape": {"dim": [{"size": "1"}, {"size": "3"}, {"size": "60"}, {"size": "60"}]}}}}, {"name": "StatefulPartitionedCall/assert_equal_1/Assert/AssertGuard/StatefulPartitionedCall/assert_equal_1/y/_117", "op": "Switch", "input": ["StatefulPartitionedCall/assert_equal_1/y", "StatefulPartitionedCall/assert_equal_1/All"], "attr": {"T": {"type": "DT_BOOL"}}}, {"name": "StatefulPartitionedCall/assert_equal_1/Assert/AssertGuard/StatefulPartitionedCall/assert_equal_1/All/_115", "op": "Switch", "input": ["StatefulPartitionedCall/assert_equal_1/All", "StatefulPartitionedCall/assert_equal_1/All"], "attr": {"T": {"type": "DT_BOOL"}}}, {"name": "StatefulPartitionedCall/assert_equal_1/Assert/AssertGuard/StatefulPartitionedCall/LogicalAnd/_116", "op": "Switch", "input": ["StatefulPartitionedCall/LogicalAnd", "StatefulPartitionedCall/assert_equal_1/All"], "attr": {"T": {"type": "DT_BOOL"}}}, {"name": "StatefulPartitionedCall/assert_equal_1/Assert/AssertGuard/switch_pred/_112", "op": "Switch", "input": ["StatefulPartitionedCall/assert_equal_1/All", "StatefulPartitionedCall/assert_equal_1/All"], "attr": {"T": {"type": "DT_BOOL"}}}, {"name": "StatefulPartitionedCall/Pad", "op": "Pad", "input": ["input", "StatefulPartitionedCall/Const"], "attr": {"T": {"type": "DT_FLOAT"}, "Tpaddings": {"type": "DT_INT32"}}}, {"name": "StatefulPartitionedCall/assert_equal_1/Assert/AssertGuard/pivot_f/_113", "op": "Identity", "input": ["StatefulPartitionedCall/assert_equal_1/Assert/AssertGuard/switch_pred/_112"], "attr": {"T": {"type": "DT_BOOL"}}}, {"name": "StatefulPartitionedCall/transpose_1", "op": "Transpose", "input": ["StatefulPartitionedCall/Pad", "StatefulPartitionedCall/transpose_1/perm"], "attr": {"T": {"type": "DT_FLOAT"}, "Tperm": {"type": "DT_INT32"}}}, {"name": "Func/StatefulPartitionedCall/assert_equal_1/Assert/AssertGuard/else/_111/input/_129", "op": "Identity", "input": ["StatefulPartitionedCall/assert_equal_1/Assert/AssertGuard/StatefulPartitionedCall/assert_equal_1/y/_117", "^StatefulPartitionedCall/assert_equal_1/Assert/AssertGuard/pivot_f/_113"], "attr": {"T": {"type": "DT_BOOL"}}}, {"name": "Func/StatefulPartitionedCall/assert_equal_1/Assert/AssertGuard/else/_111/input/_127", "op": "Identity", "input": ["StatefulPartitionedCall/assert_equal_1/Assert/AssertGuard/StatefulPartitionedCall/assert_equal_1/All/_115", "^StatefulPartitionedCall/assert_equal_1/Assert/AssertGuard/pivot_f/_113"], "attr": {"T": {"type": "DT_BOOL"}}}, {"name": "Func/StatefulPartitionedCall/assert_equal_1/Assert/AssertGuard/else/_111/input/_128", "op": "Identity", "input": ["StatefulPartitionedCall/assert_equal_1/Assert/AssertGuard/StatefulPartitionedCall/LogicalAnd/_116", "^StatefulPartitionedCall/assert_equal_1/Assert/AssertGuard/pivot_f/_113"], "attr": {"T": {"type": "DT_BOOL"}}}, {"name": "StatefulPartitionedCall/convolution", "op": "Conv2D", "input": ["StatefulPartitionedCall/transpose_1", "StatefulPartitionedCall/split"], "device": "/device:CPU:0", "attr": {"padding": {"s": "VkFMSUQ="}, "data_format": {"s": "TkhXQw=="}, "strides": {"list": {"i": ["1", "2", "2", "1"]}}, "explicit_paddings": {"list": {}}, "use_cudnn_on_gpu": {"b": true}, "dilations": {"list": {"i": ["1", "1", "1", "1"]}}, "T": {"type": "DT_FLOAT"}}}, {"name": "StatefulPartitionedCall/assert_equal_1/Assert/AssertGuard/branch_executed/_119", "op": "Merge", "input": ["StatefulPartitionedCall/assert_equal_1/Assert/AssertGuard/pivot_t/_114", "StatefulPartitionedCall/assert_equal_1/Assert/AssertGuard/pivot_f/_113", "^Func/StatefulPartitionedCall/assert_equal_1/Assert/AssertGuard/else/_111/input/_129", "^Func/StatefulPartitionedCall/assert_equal_1/Assert/AssertGuard/else/_111/input/_127", "^Func/StatefulPartitionedCall/assert_equal_1/Assert/AssertGuard/else/_111/input/_128"], "attr": {"N": {"i": "2"}, "T": {"type": "DT_BOOL"}}}, {"name": "StatefulPartitionedCall/Add", "op": "Add", "input": ["StatefulPartitionedCall/convolution", "unknown_0"], "attr": {"T": {"type": "DT_FLOAT"}}}, {"name": "StatefulPartitionedCall/transpose_2", "op": "Transpose", "input": ["StatefulPartitionedCall/Add", "StatefulPartitionedCall/transpose_2/perm"], "attr": {"T": {"type": "DT_FLOAT"}, "Tperm": {"type": "DT_INT32"}}}, {"name": "StatefulPartitionedCall/clip_by_value/Minimum", "op": "Minimum", "input": ["StatefulPartitionedCall/transpose_2", "StatefulPartitionedCall/onnx_tf_prefix_Constant_2"], "attr": {"T": {"type": "DT_FLOAT"}}}, {"name": "StatefulPartitionedCall/clip_by_value", "op": "Maximum", "input": ["StatefulPartitionedCall/clip_by_value/Minimum", "StatefulPartitionedCall/onnx_tf_prefix_Constant_1"], "attr": {"T": {"type": "DT_FLOAT"}}}, {"name": "StatefulPartitionedCall/Pad_1", "op": "Pad", "input": ["StatefulPartitionedCall/clip_by_value", "StatefulPartitionedCall/Const_1"], "attr": {"T": {"type": "DT_FLOAT"}, "Tpaddings": {"type": "DT_INT32"}}}, {"name": "StatefulPartitionedCall/transpose_4", "op": "Transpose", "input": ["StatefulPartitionedCall/Pad_1", "StatefulPartitionedCall/transpose_4/perm"], "attr": {"T": {"type": "DT_FLOAT"}, "Tperm": {"type": "DT_INT32"}}}, {"name": "StatefulPartitionedCall/depthwise", "op": "DepthwiseConv2dNative", "input": ["StatefulPartitionedCall/transpose_4", "StatefulPartitionedCall/Reshape"], "attr": {"strides": {"list": {"i": ["1", "1", "1", "1"]}}, "dilations": {"list": {"i": ["1", "1", "1", "1"]}}, "padding": {"s": "VkFMSUQ="}, "explicit_paddings": {"list": {}}, "data_format": {"s": "TkhXQw=="}, "T": {"type": "DT_FLOAT"}}}, {"name": "StatefulPartitionedCall/Add_1", "op": "Add", "input": ["StatefulPartitionedCall/depthwise", "unknown_2"], "attr": {"T": {"type": "DT_FLOAT"}}}, {"name": "StatefulPartitionedCall/transpose_5", "op": "Transpose", "input": ["StatefulPartitionedCall/Add_1", "StatefulPartitionedCall/transpose_5/perm"], "attr": {"Tperm": {"type": "DT_INT32"}, "T": {"type": "DT_FLOAT"}}}, {"name": "StatefulPartitionedCall/clip_by_value_1/Minimum", "op": "Minimum", "input": ["StatefulPartitionedCall/transpose_5", "StatefulPartitionedCall/onnx_tf_prefix_Constant_6"], "attr": {"T": {"type": "DT_FLOAT"}}}, {"name": "StatefulPartitionedCall/clip_by_value_1", "op": "Maximum", "input": ["StatefulPartitionedCall/clip_by_value_1/Minimum", "StatefulPartitionedCall/onnx_tf_prefix_Constant_5"], "attr": {"T": {"type": "DT_FLOAT"}}}, {"name": "StatefulPartitionedCall/transpose_7", "op": "Transpose", "input": ["StatefulPartitionedCall/clip_by_value_1", "StatefulPartitionedCall/transpose_7/perm"], "attr": {"Tperm": {"type": "DT_INT32"}, "T": {"type": "DT_FLOAT"}}}, {"name": "StatefulPartitionedCall/convolution_1", "op": "Conv2D", "input": ["StatefulPartitionedCall/transpose_7", "StatefulPartitionedCall/split_1"], "device": "/device:CPU:0", "attr": {"padding": {"s": "VkFMSUQ="}, "strides": {"list": {"i": ["1", "1", "1", "1"]}}, "T": {"type": "DT_FLOAT"}, "use_cudnn_on_gpu": {"b": true}, "explicit_paddings": {"list": {}}, "dilations": {"list": {"i": ["1", "1", "1", "1"]}}, "data_format": {"s": "TkhXQw=="}}}, {"name": "StatefulPartitionedCall/Add_2", "op": "Add", "input": ["StatefulPartitionedCall/convolution_1", "unknown_4"], "attr": {"T": {"type": "DT_FLOAT"}}}, {"name": "StatefulPartitionedCall/convolution_2", "op": "Conv2D", "input": ["StatefulPartitionedCall/Add_2", "StatefulPartitionedCall/split_2"], "device": "/device:CPU:0", "attr": {"dilations": {"list": {"i": ["1", "1", "1", "1"]}}, "data_format": {"s": "TkhXQw=="}, "explicit_paddings": {"list": {}}, "use_cudnn_on_gpu": {"b": true}, "T": {"type": "DT_FLOAT"}, "padding": {"s": "VkFMSUQ="}, "strides": {"list": {"i": ["1", "1", "1", "1"]}}}}, {"name": "StatefulPartitionedCall/Add_3", "op": "Add", "input": ["StatefulPartitionedCall/convolution_2", "unknown_6"], "attr": {"T": {"type": "DT_FLOAT"}}}, {"name": "StatefulPartitionedCall/transpose_11", "op": "Transpose", "input": ["StatefulPartitionedCall/Add_3", "StatefulPartitionedCall/transpose_11/perm"], "attr": {"T": {"type": "DT_FLOAT"}, "Tperm": {"type": "DT_INT32"}}}, {"name": "StatefulPartitionedCall/clip_by_value_2/Minimum", "op": "Minimum", "input": ["StatefulPartitionedCall/transpose_11", "StatefulPartitionedCall/onnx_tf_prefix_Constant_11"], "attr": {"T": {"type": "DT_FLOAT"}}}, {"name": "StatefulPartitionedCall/clip_by_value_2", "op": "Maximum", "input": ["StatefulPartitionedCall/clip_by_value_2/Minimum", "StatefulPartitionedCall/onnx_tf_prefix_Constant_10"], "attr": {"T": {"type": "DT_FLOAT"}}}, {"name": "StatefulPartitionedCall/Pad_2", "op": "Pad", "input": ["StatefulPartitionedCall/clip_by_value_2", "StatefulPartitionedCall/Const_2"], "attr": {"Tpaddings": {"type": "DT_INT32"}, "T": {"type": "DT_FLOAT"}}}, {"name": "StatefulPartitionedCall/transpose_13", "op": "Transpose", "input": ["StatefulPartitionedCall/Pad_2", "StatefulPartitionedCall/transpose_13/perm"], "attr": {"T": {"type": "DT_FLOAT"}, "Tperm": {"type": "DT_INT32"}}}, {"name": "StatefulPartitionedCall/depthwise_1", "op": "DepthwiseConv2dNative", "input": ["StatefulPartitionedCall/transpose_13", "StatefulPartitionedCall/Reshape_1"], "attr": {"T": {"type": "DT_FLOAT"}, "data_format": {"s": "TkhXQw=="}, "padding": {"s": "VkFMSUQ="}, "explicit_paddings": {"list": {}}, "strides": {"list": {"i": ["1", "2", "2", "1"]}}, "dilations": {"list": {"i": ["1", "1", "1", "1"]}}}}, {"name": "StatefulPartitionedCall/Add_4", "op": "Add", "input": ["StatefulPartitionedCall/depthwise_1", "unknown_8"], "attr": {"T": {"type": "DT_FLOAT"}}}, {"name": "StatefulPartitionedCall/transpose_14", "op": "Transpose", "input": ["StatefulPartitionedCall/Add_4", "StatefulPartitionedCall/transpose_14/perm"], "attr": {"Tperm": {"type": "DT_INT32"}, "T": {"type": "DT_FLOAT"}}}, {"name": "StatefulPartitionedCall/clip_by_value_3/Minimum", "op": "Minimum", "input": ["StatefulPartitionedCall/transpose_14", "StatefulPartitionedCall/onnx_tf_prefix_Constant_15"], "attr": {"T": {"type": "DT_FLOAT"}}}, {"name": "StatefulPartitionedCall/clip_by_value_3", "op": "Maximum", "input": ["StatefulPartitionedCall/clip_by_value_3/Minimum", "StatefulPartitionedCall/onnx_tf_prefix_Constant_14"], "attr": {"T": {"type": "DT_FLOAT"}}}, {"name": "StatefulPartitionedCall/transpose_16", "op": "Transpose", "input": ["StatefulPartitionedCall/clip_by_value_3", "StatefulPartitionedCall/transpose_16/perm"], "attr": {"Tperm": {"type": "DT_INT32"}, "T": {"type": "DT_FLOAT"}}}, {"name": "StatefulPartitionedCall/convolution_3", "op": "Conv2D", "input": ["StatefulPartitionedCall/transpose_16", "StatefulPartitionedCall/split_3"], "device": "/device:CPU:0", "attr": {"dilations": {"list": {"i": ["1", "1", "1", "1"]}}, "strides": {"list": {"i": ["1", "1", "1", "1"]}}, "T": {"type": "DT_FLOAT"}, "padding": {"s": "VkFMSUQ="}, "data_format": {"s": "TkhXQw=="}, "explicit_paddings": {"list": {}}, "use_cudnn_on_gpu": {"b": true}}}, {"name": "StatefulPartitionedCall/Add_5", "op": "Add", "input": ["StatefulPartitionedCall/convolution_3", "unknown_10"], "attr": {"T": {"type": "DT_FLOAT"}}}, {"name": "StatefulPartitionedCall/transpose_17", "op": "Transpose", "input": ["StatefulPartitionedCall/Add_5", "StatefulPartitionedCall/transpose_17/perm"], "attr": {"T": {"type": "DT_FLOAT"}, "Tperm": {"type": "DT_INT32"}}}, {"name": "StatefulPartitionedCall/convolution_4", "op": "Conv2D", "input": ["StatefulPartitionedCall/Add_5", "StatefulPartitionedCall/split_4"], "device": "/device:CPU:0", "attr": {"use_cudnn_on_gpu": {"b": true}, "dilations": {"list": {"i": ["1", "1", "1", "1"]}}, "explicit_paddings": {"list": {}}, "data_format": {"s": "TkhXQw=="}, "T": {"type": "DT_FLOAT"}, "strides": {"list": {"i": ["1", "1", "1", "1"]}}, "padding": {"s": "VkFMSUQ="}}}, {"name": "StatefulPartitionedCall/Add_6", "op": "Add", "input": ["StatefulPartitionedCall/convolution_4", "unknown_12"], "attr": {"T": {"type": "DT_FLOAT"}}}, {"name": "StatefulPartitionedCall/transpose_20", "op": "Transpose", "input": ["StatefulPartitionedCall/Add_6", "StatefulPartitionedCall/transpose_20/perm"], "attr": {"T": {"type": "DT_FLOAT"}, "Tperm": {"type": "DT_INT32"}}}, {"name": "StatefulPartitionedCall/clip_by_value_4/Minimum", "op": "Minimum", "input": ["StatefulPartitionedCall/transpose_20", "StatefulPartitionedCall/onnx_tf_prefix_Constant_20"], "attr": {"T": {"type": "DT_FLOAT"}}}, {"name": "StatefulPartitionedCall/clip_by_value_4", "op": "Maximum", "input": ["StatefulPartitionedCall/clip_by_value_4/Minimum", "StatefulPartitionedCall/onnx_tf_prefix_Constant_19"], "attr": {"T": {"type": "DT_FLOAT"}}}, {"name": "StatefulPartitionedCall/Pad_3", "op": "Pad", "input": ["StatefulPartitionedCall/clip_by_value_4", "StatefulPartitionedCall/Const_3"], "attr": {"T": {"type": "DT_FLOAT"}, "Tpaddings": {"type": "DT_INT32"}}}, {"name": "StatefulPartitionedCall/transpose_22", "op": "Transpose", "input": ["StatefulPartitionedCall/Pad_3", "StatefulPartitionedCall/transpose_22/perm"], "attr": {"Tperm": {"type": "DT_INT32"}, "T": {"type": "DT_FLOAT"}}}, {"name": "StatefulPartitionedCall/depthwise_2", "op": "DepthwiseConv2dNative", "input": ["StatefulPartitionedCall/transpose_22", "StatefulPartitionedCall/Reshape_2"], "attr": {"T": {"type": "DT_FLOAT"}, "explicit_paddings": {"list": {}}, "padding": {"s": "VkFMSUQ="}, "data_format": {"s": "TkhXQw=="}, "dilations": {"list": {"i": ["1", "1", "1", "1"]}}, "strides": {"list": {"i": ["1", "1", "1", "1"]}}}}, {"name": "StatefulPartitionedCall/Add_7", "op": "Add", "input": ["StatefulPartitionedCall/depthwise_2", "unknown_14"], "attr": {"T": {"type": "DT_FLOAT"}}}, {"name": "StatefulPartitionedCall/transpose_23", "op": "Transpose", "input": ["StatefulPartitionedCall/Add_7", "StatefulPartitionedCall/transpose_23/perm"], "attr": {"T": {"type": "DT_FLOAT"}, "Tperm": {"type": "DT_INT32"}}}, {"name": "StatefulPartitionedCall/clip_by_value_5/Minimum", "op": "Minimum", "input": ["StatefulPartitionedCall/transpose_23", "StatefulPartitionedCall/onnx_tf_prefix_Constant_24"], "attr": {"T": {"type": "DT_FLOAT"}}}, {"name": "StatefulPartitionedCall/clip_by_value_5", "op": "Maximum", "input": ["StatefulPartitionedCall/clip_by_value_5/Minimum", "StatefulPartitionedCall/onnx_tf_prefix_Constant_23"], "attr": {"T": {"type": "DT_FLOAT"}}}, {"name": "StatefulPartitionedCall/transpose_25", "op": "Transpose", "input": ["StatefulPartitionedCall/clip_by_value_5", "StatefulPartitionedCall/transpose_25/perm"], "attr": {"Tperm": {"type": "DT_INT32"}, "T": {"type": "DT_FLOAT"}}}, {"name": "StatefulPartitionedCall/convolution_5", "op": "Conv2D", "input": ["StatefulPartitionedCall/transpose_25", "StatefulPartitionedCall/split_5"], "device": "/device:CPU:0", "attr": {"use_cudnn_on_gpu": {"b": true}, "padding": {"s": "VkFMSUQ="}, "explicit_paddings": {"list": {}}, "dilations": {"list": {"i": ["1", "1", "1", "1"]}}, "data_format": {"s": "TkhXQw=="}, "T": {"type": "DT_FLOAT"}, "strides": {"list": {"i": ["1", "1", "1", "1"]}}}}, {"name": "StatefulPartitionedCall/Add_8", "op": "Add", "input": ["StatefulPartitionedCall/convolution_5", "unknown_16"], "attr": {"T": {"type": "DT_FLOAT"}}}, {"name": "StatefulPartitionedCall/transpose_26", "op": "Transpose", "input": ["StatefulPartitionedCall/Add_8", "StatefulPartitionedCall/transpose_26/perm"], "attr": {"T": {"type": "DT_FLOAT"}, "Tperm": {"type": "DT_INT32"}}}, {"name": "StatefulPartitionedCall/onnx_tf_prefix_Add_27", "op": "Add", "input": ["StatefulPartitionedCall/transpose_17", "StatefulPartitionedCall/transpose_26"], "attr": {"T": {"type": "DT_FLOAT"}}}, {"name": "StatefulPartitionedCall/transpose_28", "op": "Transpose", "input": ["StatefulPartitionedCall/onnx_tf_prefix_Add_27", "StatefulPartitionedCall/transpose_28/perm"], "attr": {"Tperm": {"type": "DT_INT32"}, "T": {"type": "DT_FLOAT"}}}, {"name": "StatefulPartitionedCall/convolution_6", "op": "Conv2D", "input": ["StatefulPartitionedCall/transpose_28", "StatefulPartitionedCall/split_6"], "device": "/device:CPU:0", "attr": {"T": {"type": "DT_FLOAT"}, "strides": {"list": {"i": ["1", "1", "1", "1"]}}, "use_cudnn_on_gpu": {"b": true}, "padding": {"s": "VkFMSUQ="}, "explicit_paddings": {"list": {}}, "data_format": {"s": "TkhXQw=="}, "dilations": {"list": {"i": ["1", "1", "1", "1"]}}}}, {"name": "StatefulPartitionedCall/Add_9", "op": "Add", "input": ["StatefulPartitionedCall/convolution_6", "unknown_18"], "attr": {"T": {"type": "DT_FLOAT"}}}, {"name": "StatefulPartitionedCall/transpose_29", "op": "Transpose", "input": ["StatefulPartitionedCall/Add_9", "StatefulPartitionedCall/transpose_29/perm"], "attr": {"T": {"type": "DT_FLOAT"}, "Tperm": {"type": "DT_INT32"}}}, {"name": "StatefulPartitionedCall/clip_by_value_6/Minimum", "op": "Minimum", "input": ["StatefulPartitionedCall/transpose_29", "StatefulPartitionedCall/onnx_tf_prefix_Constant_30"], "attr": {"T": {"type": "DT_FLOAT"}}}, {"name": "StatefulPartitionedCall/clip_by_value_6", "op": "Maximum", "input": ["StatefulPartitionedCall/clip_by_value_6/Minimum", "StatefulPartitionedCall/onnx_tf_prefix_Constant_29"], "attr": {"T": {"type": "DT_FLOAT"}}}, {"name": "StatefulPartitionedCall/Pad_4", "op": "Pad", "input": ["StatefulPartitionedCall/clip_by_value_6", "StatefulPartitionedCall/Const_4"], "attr": {"T": {"type": "DT_FLOAT"}, "Tpaddings": {"type": "DT_INT32"}}}, {"name": "StatefulPartitionedCall/transpose_31", "op": "Transpose", "input": ["StatefulPartitionedCall/Pad_4", "StatefulPartitionedCall/transpose_31/perm"], "attr": {"T": {"type": "DT_FLOAT"}, "Tperm": {"type": "DT_INT32"}}}, {"name": "StatefulPartitionedCall/depthwise_3", "op": "DepthwiseConv2dNative", "input": ["StatefulPartitionedCall/transpose_31", "StatefulPartitionedCall/Reshape_3"], "attr": {"padding": {"s": "VkFMSUQ="}, "strides": {"list": {"i": ["1", "2", "2", "1"]}}, "T": {"type": "DT_FLOAT"}, "dilations": {"list": {"i": ["1", "1", "1", "1"]}}, "data_format": {"s": "TkhXQw=="}, "explicit_paddings": {"list": {}}}}, {"name": "StatefulPartitionedCall/Add_10", "op": "Add", "input": ["StatefulPartitionedCall/depthwise_3", "unknown_20"], "attr": {"T": {"type": "DT_FLOAT"}}}, {"name": "StatefulPartitionedCall/transpose_32", "op": "Transpose", "input": ["StatefulPartitionedCall/Add_10", "StatefulPartitionedCall/transpose_32/perm"], "attr": {"T": {"type": "DT_FLOAT"}, "Tperm": {"type": "DT_INT32"}}}, {"name": "StatefulPartitionedCall/clip_by_value_7/Minimum", "op": "Minimum", "input": ["StatefulPartitionedCall/transpose_32", "StatefulPartitionedCall/onnx_tf_prefix_Constant_34"], "attr": {"T": {"type": "DT_FLOAT"}}}, {"name": "StatefulPartitionedCall/clip_by_value_7", "op": "Maximum", "input": ["StatefulPartitionedCall/clip_by_value_7/Minimum", "StatefulPartitionedCall/onnx_tf_prefix_Constant_33"], "attr": {"T": {"type": "DT_FLOAT"}}}, {"name": "StatefulPartitionedCall/transpose_34", "op": "Transpose", "input": ["StatefulPartitionedCall/clip_by_value_7", "StatefulPartitionedCall/transpose_34/perm"], "attr": {"Tperm": {"type": "DT_INT32"}, "T": {"type": "DT_FLOAT"}}}, {"name": "StatefulPartitionedCall/convolution_7", "op": "Conv2D", "input": ["StatefulPartitionedCall/transpose_34", "StatefulPartitionedCall/split_7"], "device": "/device:CPU:0", "attr": {"data_format": {"s": "TkhXQw=="}, "strides": {"list": {"i": ["1", "1", "1", "1"]}}, "dilations": {"list": {"i": ["1", "1", "1", "1"]}}, "padding": {"s": "VkFMSUQ="}, "T": {"type": "DT_FLOAT"}, "explicit_paddings": {"list": {}}, "use_cudnn_on_gpu": {"b": true}}}, {"name": "StatefulPartitionedCall/Add_11", "op": "Add", "input": ["StatefulPartitionedCall/convolution_7", "unknown_22"], "attr": {"T": {"type": "DT_FLOAT"}}}, {"name": "StatefulPartitionedCall/transpose_35", "op": "Transpose", "input": ["StatefulPartitionedCall/Add_11", "StatefulPartitionedCall/transpose_35/perm"], "attr": {"T": {"type": "DT_FLOAT"}, "Tperm": {"type": "DT_INT32"}}}, {"name": "StatefulPartitionedCall/convolution_8", "op": "Conv2D", "input": ["StatefulPartitionedCall/Add_11", "StatefulPartitionedCall/split_8"], "device": "/device:CPU:0", "attr": {"T": {"type": "DT_FLOAT"}, "use_cudnn_on_gpu": {"b": true}, "data_format": {"s": "TkhXQw=="}, "dilations": {"list": {"i": ["1", "1", "1", "1"]}}, "explicit_paddings": {"list": {}}, "padding": {"s": "VkFMSUQ="}, "strides": {"list": {"i": ["1", "1", "1", "1"]}}}}, {"name": "StatefulPartitionedCall/Add_12", "op": "Add", "input": ["StatefulPartitionedCall/convolution_8", "unknown_24"], "attr": {"T": {"type": "DT_FLOAT"}}}, {"name": "StatefulPartitionedCall/transpose_38", "op": "Transpose", "input": ["StatefulPartitionedCall/Add_12", "StatefulPartitionedCall/transpose_38/perm"], "attr": {"Tperm": {"type": "DT_INT32"}, "T": {"type": "DT_FLOAT"}}}, {"name": "StatefulPartitionedCall/clip_by_value_8/Minimum", "op": "Minimum", "input": ["StatefulPartitionedCall/transpose_38", "StatefulPartitionedCall/onnx_tf_prefix_Constant_39"], "attr": {"T": {"type": "DT_FLOAT"}}}, {"name": "StatefulPartitionedCall/clip_by_value_8", "op": "Maximum", "input": ["StatefulPartitionedCall/clip_by_value_8/Minimum", "StatefulPartitionedCall/onnx_tf_prefix_Constant_38"], "attr": {"T": {"type": "DT_FLOAT"}}}, {"name": "StatefulPartitionedCall/Pad_5", "op": "Pad", "input": ["StatefulPartitionedCall/clip_by_value_8", "StatefulPartitionedCall/Const_5"], "attr": {"T": {"type": "DT_FLOAT"}, "Tpaddings": {"type": "DT_INT32"}}}, {"name": "StatefulPartitionedCall/transpose_40", "op": "Transpose", "input": ["StatefulPartitionedCall/Pad_5", "StatefulPartitionedCall/transpose_40/perm"], "attr": {"Tperm": {"type": "DT_INT32"}, "T": {"type": "DT_FLOAT"}}}, {"name": "StatefulPartitionedCall/depthwise_4", "op": "DepthwiseConv2dNative", "input": ["StatefulPartitionedCall/transpose_40", "StatefulPartitionedCall/Reshape_4"], "attr": {"data_format": {"s": "TkhXQw=="}, "explicit_paddings": {"list": {}}, "T": {"type": "DT_FLOAT"}, "padding": {"s": "VkFMSUQ="}, "strides": {"list": {"i": ["1", "1", "1", "1"]}}, "dilations": {"list": {"i": ["1", "1", "1", "1"]}}}}, {"name": "StatefulPartitionedCall/Add_13", "op": "Add", "input": ["StatefulPartitionedCall/depthwise_4", "unknown_26"], "attr": {"T": {"type": "DT_FLOAT"}}}, {"name": "StatefulPartitionedCall/transpose_41", "op": "Transpose", "input": ["StatefulPartitionedCall/Add_13", "StatefulPartitionedCall/transpose_41/perm"], "attr": {"T": {"type": "DT_FLOAT"}, "Tperm": {"type": "DT_INT32"}}}, {"name": "StatefulPartitionedCall/clip_by_value_9/Minimum", "op": "Minimum", "input": ["StatefulPartitionedCall/transpose_41", "StatefulPartitionedCall/onnx_tf_prefix_Constant_43"], "attr": {"T": {"type": "DT_FLOAT"}}}, {"name": "StatefulPartitionedCall/clip_by_value_9", "op": "Maximum", "input": ["StatefulPartitionedCall/clip_by_value_9/Minimum", "StatefulPartitionedCall/onnx_tf_prefix_Constant_42"], "attr": {"T": {"type": "DT_FLOAT"}}}, {"name": "StatefulPartitionedCall/transpose_43", "op": "Transpose", "input": ["StatefulPartitionedCall/clip_by_value_9", "StatefulPartitionedCall/transpose_43/perm"], "attr": {"Tperm": {"type": "DT_INT32"}, "T": {"type": "DT_FLOAT"}}}, {"name": "StatefulPartitionedCall/convolution_9", "op": "Conv2D", "input": ["StatefulPartitionedCall/transpose_43", "StatefulPartitionedCall/split_9"], "device": "/device:CPU:0", "attr": {"explicit_paddings": {"list": {}}, "data_format": {"s": "TkhXQw=="}, "padding": {"s": "VkFMSUQ="}, "T": {"type": "DT_FLOAT"}, "dilations": {"list": {"i": ["1", "1", "1", "1"]}}, "strides": {"list": {"i": ["1", "1", "1", "1"]}}, "use_cudnn_on_gpu": {"b": true}}}, {"name": "StatefulPartitionedCall/Add_14", "op": "Add", "input": ["StatefulPartitionedCall/convolution_9", "unknown_28"], "attr": {"T": {"type": "DT_FLOAT"}}}, {"name": "StatefulPartitionedCall/transpose_44", "op": "Transpose", "input": ["StatefulPartitionedCall/Add_14", "StatefulPartitionedCall/transpose_44/perm"], "attr": {"T": {"type": "DT_FLOAT"}, "Tperm": {"type": "DT_INT32"}}}, {"name": "StatefulPartitionedCall/onnx_tf_prefix_Add_46", "op": "Add", "input": ["StatefulPartitionedCall/transpose_35", "StatefulPartitionedCall/transpose_44"], "attr": {"T": {"type": "DT_FLOAT"}}}, {"name": "StatefulPartitionedCall/transpose_46", "op": "Transpose", "input": ["StatefulPartitionedCall/onnx_tf_prefix_Add_46", "StatefulPartitionedCall/transpose_46/perm"], "attr": {"T": {"type": "DT_FLOAT"}, "Tperm": {"type": "DT_INT32"}}}, {"name": "StatefulPartitionedCall/convolution_10", "op": "Conv2D", "input": ["StatefulPartitionedCall/transpose_46", "StatefulPartitionedCall/split_10"], "device": "/device:CPU:0", "attr": {"explicit_paddings": {"list": {}}, "dilations": {"list": {"i": ["1", "1", "1", "1"]}}, "use_cudnn_on_gpu": {"b": true}, "strides": {"list": {"i": ["1", "1", "1", "1"]}}, "data_format": {"s": "TkhXQw=="}, "T": {"type": "DT_FLOAT"}, "padding": {"s": "VkFMSUQ="}}}, {"name": "StatefulPartitionedCall/Add_15", "op": "Add", "input": ["StatefulPartitionedCall/convolution_10", "unknown_30"], "attr": {"T": {"type": "DT_FLOAT"}}}, {"name": "StatefulPartitionedCall/transpose_47", "op": "Transpose", "input": ["StatefulPartitionedCall/Add_15", "StatefulPartitionedCall/transpose_47/perm"], "attr": {"T": {"type": "DT_FLOAT"}, "Tperm": {"type": "DT_INT32"}}}, {"name": "StatefulPartitionedCall/clip_by_value_10/Minimum", "op": "Minimum", "input": ["StatefulPartitionedCall/transpose_47", "StatefulPartitionedCall/onnx_tf_prefix_Constant_49"], "attr": {"T": {"type": "DT_FLOAT"}}}, {"name": "StatefulPartitionedCall/clip_by_value_10", "op": "Maximum", "input": ["StatefulPartitionedCall/clip_by_value_10/Minimum", "StatefulPartitionedCall/onnx_tf_prefix_Constant_48"], "attr": {"T": {"type": "DT_FLOAT"}}}, {"name": "StatefulPartitionedCall/Pad_6", "op": "Pad", "input": ["StatefulPartitionedCall/clip_by_value_10", "StatefulPartitionedCall/Const_6"], "attr": {"T": {"type": "DT_FLOAT"}, "Tpaddings": {"type": "DT_INT32"}}}, {"name": "StatefulPartitionedCall/transpose_49", "op": "Transpose", "input": ["StatefulPartitionedCall/Pad_6", "StatefulPartitionedCall/transpose_49/perm"], "attr": {"T": {"type": "DT_FLOAT"}, "Tperm": {"type": "DT_INT32"}}}, {"name": "StatefulPartitionedCall/depthwise_5", "op": "DepthwiseConv2dNative", "input": ["StatefulPartitionedCall/transpose_49", "StatefulPartitionedCall/Reshape_5"], "attr": {"strides": {"list": {"i": ["1", "1", "1", "1"]}}, "T": {"type": "DT_FLOAT"}, "explicit_paddings": {"list": {}}, "padding": {"s": "VkFMSUQ="}, "data_format": {"s": "TkhXQw=="}, "dilations": {"list": {"i": ["1", "1", "1", "1"]}}}}, {"name": "StatefulPartitionedCall/Add_16", "op": "Add", "input": ["StatefulPartitionedCall/depthwise_5", "unknown_32"], "attr": {"T": {"type": "DT_FLOAT"}}}, {"name": "StatefulPartitionedCall/transpose_50", "op": "Transpose", "input": ["StatefulPartitionedCall/Add_16", "StatefulPartitionedCall/transpose_50/perm"], "attr": {"T": {"type": "DT_FLOAT"}, "Tperm": {"type": "DT_INT32"}}}, {"name": "StatefulPartitionedCall/clip_by_value_11/Minimum", "op": "Minimum", "input": ["StatefulPartitionedCall/transpose_50", "StatefulPartitionedCall/onnx_tf_prefix_Constant_53"], "attr": {"T": {"type": "DT_FLOAT"}}}, {"name": "StatefulPartitionedCall/clip_by_value_11", "op": "Maximum", "input": ["StatefulPartitionedCall/clip_by_value_11/Minimum", "StatefulPartitionedCall/onnx_tf_prefix_Constant_52"], "attr": {"T": {"type": "DT_FLOAT"}}}, {"name": "StatefulPartitionedCall/transpose_52", "op": "Transpose", "input": ["StatefulPartitionedCall/clip_by_value_11", "StatefulPartitionedCall/transpose_52/perm"], "attr": {"Tperm": {"type": "DT_INT32"}, "T": {"type": "DT_FLOAT"}}}, {"name": "StatefulPartitionedCall/convolution_11", "op": "Conv2D", "input": ["StatefulPartitionedCall/transpose_52", "StatefulPartitionedCall/split_11"], "device": "/device:CPU:0", "attr": {"T": {"type": "DT_FLOAT"}, "strides": {"list": {"i": ["1", "1", "1", "1"]}}, "data_format": {"s": "TkhXQw=="}, "explicit_paddings": {"list": {}}, "padding": {"s": "VkFMSUQ="}, "use_cudnn_on_gpu": {"b": true}, "dilations": {"list": {"i": ["1", "1", "1", "1"]}}}}, {"name": "StatefulPartitionedCall/Add_17", "op": "Add", "input": ["StatefulPartitionedCall/convolution_11", "unknown_34"], "attr": {"T": {"type": "DT_FLOAT"}}}, {"name": "StatefulPartitionedCall/transpose_53", "op": "Transpose", "input": ["StatefulPartitionedCall/Add_17", "StatefulPartitionedCall/transpose_53/perm"], "attr": {"Tperm": {"type": "DT_INT32"}, "T": {"type": "DT_FLOAT"}}}, {"name": "StatefulPartitionedCall/onnx_tf_prefix_Add_56", "op": "Add", "input": ["StatefulPartitionedCall/onnx_tf_prefix_Add_46", "StatefulPartitionedCall/transpose_53"], "attr": {"T": {"type": "DT_FLOAT"}}}, {"name": "StatefulPartitionedCall/transpose_55", "op": "Transpose", "input": ["StatefulPartitionedCall/onnx_tf_prefix_Add_56", "StatefulPartitionedCall/transpose_55/perm"], "attr": {"T": {"type": "DT_FLOAT"}, "Tperm": {"type": "DT_INT32"}}}, {"name": "StatefulPartitionedCall/convolution_12", "op": "Conv2D", "input": ["StatefulPartitionedCall/transpose_55", "StatefulPartitionedCall/split_12"], "device": "/device:CPU:0", "attr": {"T": {"type": "DT_FLOAT"}, "dilations": {"list": {"i": ["1", "1", "1", "1"]}}, "data_format": {"s": "TkhXQw=="}, "explicit_paddings": {"list": {}}, "padding": {"s": "VkFMSUQ="}, "use_cudnn_on_gpu": {"b": true}, "strides": {"list": {"i": ["1", "1", "1", "1"]}}}}, {"name": "StatefulPartitionedCall/Add_18", "op": "Add", "input": ["StatefulPartitionedCall/convolution_12", "unknown_36"], "attr": {"T": {"type": "DT_FLOAT"}}}, {"name": "StatefulPartitionedCall/transpose_56", "op": "Transpose", "input": ["StatefulPartitionedCall/Add_18", "StatefulPartitionedCall/transpose_56/perm"], "attr": {"T": {"type": "DT_FLOAT"}, "Tperm": {"type": "DT_INT32"}}}, {"name": "StatefulPartitionedCall/clip_by_value_12/Minimum", "op": "Minimum", "input": ["StatefulPartitionedCall/transpose_56", "StatefulPartitionedCall/onnx_tf_prefix_Constant_59"], "attr": {"T": {"type": "DT_FLOAT"}}}, {"name": "StatefulPartitionedCall/clip_by_value_12", "op": "Maximum", "input": ["StatefulPartitionedCall/clip_by_value_12/Minimum", "StatefulPartitionedCall/onnx_tf_prefix_Constant_58"], "attr": {"T": {"type": "DT_FLOAT"}}}, {"name": "StatefulPartitionedCall/Pad_7", "op": "Pad", "input": ["StatefulPartitionedCall/clip_by_value_12", "StatefulPartitionedCall/Const_7"], "attr": {"T": {"type": "DT_FLOAT"}, "Tpaddings": {"type": "DT_INT32"}}}, {"name": "StatefulPartitionedCall/transpose_58", "op": "Transpose", "input": ["StatefulPartitionedCall/Pad_7", "StatefulPartitionedCall/transpose_58/perm"], "attr": {"T": {"type": "DT_FLOAT"}, "Tperm": {"type": "DT_INT32"}}}, {"name": "StatefulPartitionedCall/depthwise_6", "op": "DepthwiseConv2dNative", "input": ["StatefulPartitionedCall/transpose_58", "StatefulPartitionedCall/Reshape_6"], "attr": {"dilations": {"list": {"i": ["1", "1", "1", "1"]}}, "padding": {"s": "VkFMSUQ="}, "explicit_paddings": {"list": {}}, "T": {"type": "DT_FLOAT"}, "data_format": {"s": "TkhXQw=="}, "strides": {"list": {"i": ["1", "2", "2", "1"]}}}}, {"name": "StatefulPartitionedCall/Add_19", "op": "Add", "input": ["StatefulPartitionedCall/depthwise_6", "unknown_38"], "attr": {"T": {"type": "DT_FLOAT"}}}, {"name": "StatefulPartitionedCall/transpose_59", "op": "Transpose", "input": ["StatefulPartitionedCall/Add_19", "StatefulPartitionedCall/transpose_59/perm"], "attr": {"Tperm": {"type": "DT_INT32"}, "T": {"type": "DT_FLOAT"}}}, {"name": "StatefulPartitionedCall/clip_by_value_13/Minimum", "op": "Minimum", "input": ["StatefulPartitionedCall/transpose_59", "StatefulPartitionedCall/onnx_tf_prefix_Constant_63"], "attr": {"T": {"type": "DT_FLOAT"}}}, {"name": "StatefulPartitionedCall/clip_by_value_13", "op": "Maximum", "input": ["StatefulPartitionedCall/clip_by_value_13/Minimum", "StatefulPartitionedCall/onnx_tf_prefix_Constant_62"], "attr": {"T": {"type": "DT_FLOAT"}}}, {"name": "StatefulPartitionedCall/transpose_61", "op": "Transpose", "input": ["StatefulPartitionedCall/clip_by_value_13", "StatefulPartitionedCall/transpose_61/perm"], "attr": {"T": {"type": "DT_FLOAT"}, "Tperm": {"type": "DT_INT32"}}}, {"name": "StatefulPartitionedCall/convolution_13", "op": "Conv2D", "input": ["StatefulPartitionedCall/transpose_61", "StatefulPartitionedCall/split_13"], "device": "/device:CPU:0", "attr": {"strides": {"list": {"i": ["1", "1", "1", "1"]}}, "use_cudnn_on_gpu": {"b": true}, "data_format": {"s": "TkhXQw=="}, "padding": {"s": "VkFMSUQ="}, "explicit_paddings": {"list": {}}, "dilations": {"list": {"i": ["1", "1", "1", "1"]}}, "T": {"type": "DT_FLOAT"}}}, {"name": "StatefulPartitionedCall/Add_20", "op": "Add", "input": ["StatefulPartitionedCall/convolution_13", "unknown_40"], "attr": {"T": {"type": "DT_FLOAT"}}}, {"name": "StatefulPartitionedCall/transpose_62", "op": "Transpose", "input": ["StatefulPartitionedCall/Add_20", "StatefulPartitionedCall/transpose_62/perm"], "attr": {"T": {"type": "DT_FLOAT"}, "Tperm": {"type": "DT_INT32"}}}, {"name": "StatefulPartitionedCall/convolution_14", "op": "Conv2D", "input": ["StatefulPartitionedCall/Add_20", "StatefulPartitionedCall/split_14"], "device": "/device:CPU:0", "attr": {"strides": {"list": {"i": ["1", "1", "1", "1"]}}, "dilations": {"list": {"i": ["1", "1", "1", "1"]}}, "T": {"type": "DT_FLOAT"}, "explicit_paddings": {"list": {}}, "padding": {"s": "VkFMSUQ="}, "use_cudnn_on_gpu": {"b": true}, "data_format": {"s": "TkhXQw=="}}}, {"name": "StatefulPartitionedCall/Add_21", "op": "Add", "input": ["StatefulPartitionedCall/convolution_14", "unknown_42"], "attr": {"T": {"type": "DT_FLOAT"}}}, {"name": "StatefulPartitionedCall/transpose_65", "op": "Transpose", "input": ["StatefulPartitionedCall/Add_21", "StatefulPartitionedCall/transpose_65/perm"], "attr": {"T": {"type": "DT_FLOAT"}, "Tperm": {"type": "DT_INT32"}}}, {"name": "StatefulPartitionedCall/clip_by_value_14/Minimum", "op": "Minimum", "input": ["StatefulPartitionedCall/transpose_65", "StatefulPartitionedCall/onnx_tf_prefix_Constant_68"], "attr": {"T": {"type": "DT_FLOAT"}}}, {"name": "StatefulPartitionedCall/clip_by_value_14", "op": "Maximum", "input": ["StatefulPartitionedCall/clip_by_value_14/Minimum", "StatefulPartitionedCall/onnx_tf_prefix_Constant_67"], "attr": {"T": {"type": "DT_FLOAT"}}}, {"name": "StatefulPartitionedCall/Pad_8", "op": "Pad", "input": ["StatefulPartitionedCall/clip_by_value_14", "StatefulPartitionedCall/Const_8"], "attr": {"T": {"type": "DT_FLOAT"}, "Tpaddings": {"type": "DT_INT32"}}}, {"name": "StatefulPartitionedCall/transpose_67", "op": "Transpose", "input": ["StatefulPartitionedCall/Pad_8", "StatefulPartitionedCall/transpose_67/perm"], "attr": {"T": {"type": "DT_FLOAT"}, "Tperm": {"type": "DT_INT32"}}}, {"name": "StatefulPartitionedCall/depthwise_7", "op": "DepthwiseConv2dNative", "input": ["StatefulPartitionedCall/transpose_67", "StatefulPartitionedCall/Reshape_7"], "attr": {"explicit_paddings": {"list": {}}, "dilations": {"list": {"i": ["1", "1", "1", "1"]}}, "strides": {"list": {"i": ["1", "1", "1", "1"]}}, "T": {"type": "DT_FLOAT"}, "padding": {"s": "VkFMSUQ="}, "data_format": {"s": "TkhXQw=="}}}, {"name": "StatefulPartitionedCall/Add_22", "op": "Add", "input": ["StatefulPartitionedCall/depthwise_7", "unknown_44"], "attr": {"T": {"type": "DT_FLOAT"}}}, {"name": "StatefulPartitionedCall/transpose_68", "op": "Transpose", "input": ["StatefulPartitionedCall/Add_22", "StatefulPartitionedCall/transpose_68/perm"], "attr": {"T": {"type": "DT_FLOAT"}, "Tperm": {"type": "DT_INT32"}}}, {"name": "StatefulPartitionedCall/clip_by_value_15/Minimum", "op": "Minimum", "input": ["StatefulPartitionedCall/transpose_68", "StatefulPartitionedCall/onnx_tf_prefix_Constant_72"], "attr": {"T": {"type": "DT_FLOAT"}}}, {"name": "StatefulPartitionedCall/clip_by_value_15", "op": "Maximum", "input": ["StatefulPartitionedCall/clip_by_value_15/Minimum", "StatefulPartitionedCall/onnx_tf_prefix_Constant_71"], "attr": {"T": {"type": "DT_FLOAT"}}}, {"name": "StatefulPartitionedCall/transpose_70", "op": "Transpose", "input": ["StatefulPartitionedCall/clip_by_value_15", "StatefulPartitionedCall/transpose_70/perm"], "attr": {"Tperm": {"type": "DT_INT32"}, "T": {"type": "DT_FLOAT"}}}, {"name": "StatefulPartitionedCall/convolution_15", "op": "Conv2D", "input": ["StatefulPartitionedCall/transpose_70", "StatefulPartitionedCall/split_15"], "device": "/device:CPU:0", "attr": {"use_cudnn_on_gpu": {"b": true}, "padding": {"s": "VkFMSUQ="}, "dilations": {"list": {"i": ["1", "1", "1", "1"]}}, "data_format": {"s": "TkhXQw=="}, "strides": {"list": {"i": ["1", "1", "1", "1"]}}, "explicit_paddings": {"list": {}}, "T": {"type": "DT_FLOAT"}}}, {"name": "StatefulPartitionedCall/Add_23", "op": "Add", "input": ["StatefulPartitionedCall/convolution_15", "unknown_46"], "attr": {"T": {"type": "DT_FLOAT"}}}, {"name": "StatefulPartitionedCall/transpose_71", "op": "Transpose", "input": ["StatefulPartitionedCall/Add_23", "StatefulPartitionedCall/transpose_71/perm"], "attr": {"Tperm": {"type": "DT_INT32"}, "T": {"type": "DT_FLOAT"}}}, {"name": "StatefulPartitionedCall/onnx_tf_prefix_Add_75", "op": "Add", "input": ["StatefulPartitionedCall/transpose_62", "StatefulPartitionedCall/transpose_71"], "attr": {"T": {"type": "DT_FLOAT"}}}, {"name": "StatefulPartitionedCall/transpose_73", "op": "Transpose", "input": ["StatefulPartitionedCall/onnx_tf_prefix_Add_75", "StatefulPartitionedCall/transpose_73/perm"], "attr": {"Tperm": {"type": "DT_INT32"}, "T": {"type": "DT_FLOAT"}}}, {"name": "StatefulPartitionedCall/convolution_16", "op": "Conv2D", "input": ["StatefulPartitionedCall/transpose_73", "StatefulPartitionedCall/split_16"], "device": "/device:CPU:0", "attr": {"explicit_paddings": {"list": {}}, "strides": {"list": {"i": ["1", "1", "1", "1"]}}, "padding": {"s": "VkFMSUQ="}, "use_cudnn_on_gpu": {"b": true}, "T": {"type": "DT_FLOAT"}, "dilations": {"list": {"i": ["1", "1", "1", "1"]}}, "data_format": {"s": "TkhXQw=="}}}, {"name": "StatefulPartitionedCall/Add_24", "op": "Add", "input": ["StatefulPartitionedCall/convolution_16", "unknown_48"], "attr": {"T": {"type": "DT_FLOAT"}}}, {"name": "StatefulPartitionedCall/transpose_74", "op": "Transpose", "input": ["StatefulPartitionedCall/Add_24", "StatefulPartitionedCall/transpose_74/perm"], "attr": {"Tperm": {"type": "DT_INT32"}, "T": {"type": "DT_FLOAT"}}}, {"name": "StatefulPartitionedCall/clip_by_value_16/Minimum", "op": "Minimum", "input": ["StatefulPartitionedCall/transpose_74", "StatefulPartitionedCall/onnx_tf_prefix_Constant_78"], "attr": {"T": {"type": "DT_FLOAT"}}}, {"name": "StatefulPartitionedCall/clip_by_value_16", "op": "Maximum", "input": ["StatefulPartitionedCall/clip_by_value_16/Minimum", "StatefulPartitionedCall/onnx_tf_prefix_Constant_77"], "attr": {"T": {"type": "DT_FLOAT"}}}, {"name": "StatefulPartitionedCall/Pad_9", "op": "Pad", "input": ["StatefulPartitionedCall/clip_by_value_16", "StatefulPartitionedCall/Const_9"], "attr": {"Tpaddings": {"type": "DT_INT32"}, "T": {"type": "DT_FLOAT"}}}, {"name": "StatefulPartitionedCall/transpose_76", "op": "Transpose", "input": ["StatefulPartitionedCall/Pad_9", "StatefulPartitionedCall/transpose_76/perm"], "attr": {"Tperm": {"type": "DT_INT32"}, "T": {"type": "DT_FLOAT"}}}, {"name": "StatefulPartitionedCall/depthwise_8", "op": "DepthwiseConv2dNative", "input": ["StatefulPartitionedCall/transpose_76", "StatefulPartitionedCall/Reshape_8"], "attr": {"T": {"type": "DT_FLOAT"}, "padding": {"s": "VkFMSUQ="}, "data_format": {"s": "TkhXQw=="}, "explicit_paddings": {"list": {}}, "dilations": {"list": {"i": ["1", "1", "1", "1"]}}, "strides": {"list": {"i": ["1", "1", "1", "1"]}}}}, {"name": "StatefulPartitionedCall/Add_25", "op": "Add", "input": ["StatefulPartitionedCall/depthwise_8", "unknown_50"], "attr": {"T": {"type": "DT_FLOAT"}}}, {"name": "StatefulPartitionedCall/transpose_77", "op": "Transpose", "input": ["StatefulPartitionedCall/Add_25", "StatefulPartitionedCall/transpose_77/perm"], "attr": {"Tperm": {"type": "DT_INT32"}, "T": {"type": "DT_FLOAT"}}}, {"name": "StatefulPartitionedCall/clip_by_value_17/Minimum", "op": "Minimum", "input": ["StatefulPartitionedCall/transpose_77", "StatefulPartitionedCall/onnx_tf_prefix_Constant_82"], "attr": {"T": {"type": "DT_FLOAT"}}}, {"name": "StatefulPartitionedCall/clip_by_value_17", "op": "Maximum", "input": ["StatefulPartitionedCall/clip_by_value_17/Minimum", "StatefulPartitionedCall/onnx_tf_prefix_Constant_81"], "attr": {"T": {"type": "DT_FLOAT"}}}, {"name": "StatefulPartitionedCall/transpose_79", "op": "Transpose", "input": ["StatefulPartitionedCall/clip_by_value_17", "StatefulPartitionedCall/transpose_79/perm"], "attr": {"T": {"type": "DT_FLOAT"}, "Tperm": {"type": "DT_INT32"}}}, {"name": "StatefulPartitionedCall/convolution_17", "op": "Conv2D", "input": ["StatefulPartitionedCall/transpose_79", "StatefulPartitionedCall/split_17"], "device": "/device:CPU:0", "attr": {"explicit_paddings": {"list": {}}, "dilations": {"list": {"i": ["1", "1", "1", "1"]}}, "T": {"type": "DT_FLOAT"}, "padding": {"s": "VkFMSUQ="}, "strides": {"list": {"i": ["1", "1", "1", "1"]}}, "use_cudnn_on_gpu": {"b": true}, "data_format": {"s": "TkhXQw=="}}}, {"name": "StatefulPartitionedCall/Add_26", "op": "Add", "input": ["StatefulPartitionedCall/convolution_17", "unknown_52"], "attr": {"T": {"type": "DT_FLOAT"}}}, {"name": "StatefulPartitionedCall/transpose_80", "op": "Transpose", "input": ["StatefulPartitionedCall/Add_26", "StatefulPartitionedCall/transpose_80/perm"], "attr": {"Tperm": {"type": "DT_INT32"}, "T": {"type": "DT_FLOAT"}}}, {"name": "StatefulPartitionedCall/onnx_tf_prefix_Add_85", "op": "Add", "input": ["StatefulPartitionedCall/onnx_tf_prefix_Add_75", "StatefulPartitionedCall/transpose_80"], "attr": {"T": {"type": "DT_FLOAT"}}}, {"name": "StatefulPartitionedCall/transpose_82", "op": "Transpose", "input": ["StatefulPartitionedCall/onnx_tf_prefix_Add_85", "StatefulPartitionedCall/transpose_82/perm"], "attr": {"Tperm": {"type": "DT_INT32"}, "T": {"type": "DT_FLOAT"}}}, {"name": "StatefulPartitionedCall/convolution_18", "op": "Conv2D", "input": ["StatefulPartitionedCall/transpose_82", "StatefulPartitionedCall/split_18"], "device": "/device:CPU:0", "attr": {"T": {"type": "DT_FLOAT"}, "use_cudnn_on_gpu": {"b": true}, "padding": {"s": "VkFMSUQ="}, "data_format": {"s": "TkhXQw=="}, "dilations": {"list": {"i": ["1", "1", "1", "1"]}}, "explicit_paddings": {"list": {}}, "strides": {"list": {"i": ["1", "1", "1", "1"]}}}}, {"name": "StatefulPartitionedCall/Add_27", "op": "Add", "input": ["StatefulPartitionedCall/convolution_18", "unknown_54"], "attr": {"T": {"type": "DT_FLOAT"}}}, {"name": "StatefulPartitionedCall/transpose_83", "op": "Transpose", "input": ["StatefulPartitionedCall/Add_27", "StatefulPartitionedCall/transpose_83/perm"], "attr": {"T": {"type": "DT_FLOAT"}, "Tperm": {"type": "DT_INT32"}}}, {"name": "StatefulPartitionedCall/clip_by_value_18/Minimum", "op": "Minimum", "input": ["StatefulPartitionedCall/transpose_83", "StatefulPartitionedCall/onnx_tf_prefix_Constant_88"], "attr": {"T": {"type": "DT_FLOAT"}}}, {"name": "StatefulPartitionedCall/clip_by_value_18", "op": "Maximum", "input": ["StatefulPartitionedCall/clip_by_value_18/Minimum", "StatefulPartitionedCall/onnx_tf_prefix_Constant_87"], "attr": {"T": {"type": "DT_FLOAT"}}}, {"name": "StatefulPartitionedCall/Pad_10", "op": "Pad", "input": ["StatefulPartitionedCall/clip_by_value_18", "StatefulPartitionedCall/Const_10"], "attr": {"Tpaddings": {"type": "DT_INT32"}, "T": {"type": "DT_FLOAT"}}}, {"name": "StatefulPartitionedCall/transpose_85", "op": "Transpose", "input": ["StatefulPartitionedCall/Pad_10", "StatefulPartitionedCall/transpose_85/perm"], "attr": {"T": {"type": "DT_FLOAT"}, "Tperm": {"type": "DT_INT32"}}}, {"name": "StatefulPartitionedCall/depthwise_9", "op": "DepthwiseConv2dNative", "input": ["StatefulPartitionedCall/transpose_85", "StatefulPartitionedCall/Reshape_9"], "attr": {"explicit_paddings": {"list": {}}, "padding": {"s": "VkFMSUQ="}, "data_format": {"s": "TkhXQw=="}, "dilations": {"list": {"i": ["1", "1", "1", "1"]}}, "strides": {"list": {"i": ["1", "1", "1", "1"]}}, "T": {"type": "DT_FLOAT"}}}, {"name": "StatefulPartitionedCall/Add_28", "op": "Add", "input": ["StatefulPartitionedCall/depthwise_9", "unknown_56"], "attr": {"T": {"type": "DT_FLOAT"}}}, {"name": "StatefulPartitionedCall/transpose_86", "op": "Transpose", "input": ["StatefulPartitionedCall/Add_28", "StatefulPartitionedCall/transpose_86/perm"], "attr": {"Tperm": {"type": "DT_INT32"}, "T": {"type": "DT_FLOAT"}}}, {"name": "StatefulPartitionedCall/clip_by_value_19/Minimum", "op": "Minimum", "input": ["StatefulPartitionedCall/transpose_86", "StatefulPartitionedCall/onnx_tf_prefix_Constant_92"], "attr": {"T": {"type": "DT_FLOAT"}}}, {"name": "StatefulPartitionedCall/clip_by_value_19", "op": "Maximum", "input": ["StatefulPartitionedCall/clip_by_value_19/Minimum", "StatefulPartitionedCall/onnx_tf_prefix_Constant_91"], "attr": {"T": {"type": "DT_FLOAT"}}}, {"name": "StatefulPartitionedCall/transpose_88", "op": "Transpose", "input": ["StatefulPartitionedCall/clip_by_value_19", "StatefulPartitionedCall/transpose_88/perm"], "attr": {"Tperm": {"type": "DT_INT32"}, "T": {"type": "DT_FLOAT"}}}, {"name": "StatefulPartitionedCall/convolution_19", "op": "Conv2D", "input": ["StatefulPartitionedCall/transpose_88", "StatefulPartitionedCall/split_19"], "device": "/device:CPU:0", "attr": {"padding": {"s": "VkFMSUQ="}, "explicit_paddings": {"list": {}}, "dilations": {"list": {"i": ["1", "1", "1", "1"]}}, "strides": {"list": {"i": ["1", "1", "1", "1"]}}, "T": {"type": "DT_FLOAT"}, "use_cudnn_on_gpu": {"b": true}, "data_format": {"s": "TkhXQw=="}}}, {"name": "StatefulPartitionedCall/Add_29", "op": "Add", "input": ["StatefulPartitionedCall/convolution_19", "unknown_58"], "attr": {"T": {"type": "DT_FLOAT"}}}, {"name": "StatefulPartitionedCall/transpose_89", "op": "Transpose", "input": ["StatefulPartitionedCall/Add_29", "StatefulPartitionedCall/transpose_89/perm"], "attr": {"T": {"type": "DT_FLOAT"}, "Tperm": {"type": "DT_INT32"}}}, {"name": "StatefulPartitionedCall/onnx_tf_prefix_Add_95", "op": "Add", "input": ["StatefulPartitionedCall/onnx_tf_prefix_Add_85", "StatefulPartitionedCall/transpose_89"], "attr": {"T": {"type": "DT_FLOAT"}}}, {"name": "StatefulPartitionedCall/transpose_91", "op": "Transpose", "input": ["StatefulPartitionedCall/onnx_tf_prefix_Add_95", "StatefulPartitionedCall/transpose_91/perm"], "attr": {"T": {"type": "DT_FLOAT"}, "Tperm": {"type": "DT_INT32"}}}, {"name": "StatefulPartitionedCall/convolution_20", "op": "Conv2D", "input": ["StatefulPartitionedCall/transpose_91", "StatefulPartitionedCall/split_20"], "device": "/device:CPU:0", "attr": {"explicit_paddings": {"list": {}}, "padding": {"s": "VkFMSUQ="}, "strides": {"list": {"i": ["1", "1", "1", "1"]}}, "T": {"type": "DT_FLOAT"}, "dilations": {"list": {"i": ["1", "1", "1", "1"]}}, "use_cudnn_on_gpu": {"b": true}, "data_format": {"s": "TkhXQw=="}}}, {"name": "StatefulPartitionedCall/Add_30", "op": "Add", "input": ["StatefulPartitionedCall/convolution_20", "unknown_60"], "attr": {"T": {"type": "DT_FLOAT"}}}, {"name": "StatefulPartitionedCall/transpose_92", "op": "Transpose", "input": ["StatefulPartitionedCall/Add_30", "StatefulPartitionedCall/transpose_92/perm"], "attr": {"T": {"type": "DT_FLOAT"}, "Tperm": {"type": "DT_INT32"}}}, {"name": "StatefulPartitionedCall/clip_by_value_20/Minimum", "op": "Minimum", "input": ["StatefulPartitionedCall/transpose_92", "StatefulPartitionedCall/onnx_tf_prefix_Constant_98"], "attr": {"T": {"type": "DT_FLOAT"}}}, {"name": "StatefulPartitionedCall/clip_by_value_20", "op": "Maximum", "input": ["StatefulPartitionedCall/clip_by_value_20/Minimum", "StatefulPartitionedCall/onnx_tf_prefix_Constant_97"], "attr": {"T": {"type": "DT_FLOAT"}}}, {"name": "StatefulPartitionedCall/Pad_11", "op": "Pad", "input": ["StatefulPartitionedCall/clip_by_value_20", "StatefulPartitionedCall/Const_11"], "attr": {"Tpaddings": {"type": "DT_INT32"}, "T": {"type": "DT_FLOAT"}}}, {"name": "StatefulPartitionedCall/transpose_94", "op": "Transpose", "input": ["StatefulPartitionedCall/Pad_11", "StatefulPartitionedCall/transpose_94/perm"], "attr": {"Tperm": {"type": "DT_INT32"}, "T": {"type": "DT_FLOAT"}}}, {"name": "StatefulPartitionedCall/depthwise_10", "op": "DepthwiseConv2dNative", "input": ["StatefulPartitionedCall/transpose_94", "StatefulPartitionedCall/Reshape_10"], "attr": {"data_format": {"s": "TkhXQw=="}, "dilations": {"list": {"i": ["1", "1", "1", "1"]}}, "padding": {"s": "VkFMSUQ="}, "strides": {"list": {"i": ["1", "1", "1", "1"]}}, "T": {"type": "DT_FLOAT"}, "explicit_paddings": {"list": {}}}}, {"name": "StatefulPartitionedCall/Add_31", "op": "Add", "input": ["StatefulPartitionedCall/depthwise_10", "unknown_62"], "attr": {"T": {"type": "DT_FLOAT"}}}, {"name": "StatefulPartitionedCall/transpose_95", "op": "Transpose", "input": ["StatefulPartitionedCall/Add_31", "StatefulPartitionedCall/transpose_95/perm"], "attr": {"Tperm": {"type": "DT_INT32"}, "T": {"type": "DT_FLOAT"}}}, {"name": "StatefulPartitionedCall/clip_by_value_21/Minimum", "op": "Minimum", "input": ["StatefulPartitionedCall/transpose_95", "StatefulPartitionedCall/onnx_tf_prefix_Constant_102"], "attr": {"T": {"type": "DT_FLOAT"}}}, {"name": "StatefulPartitionedCall/clip_by_value_21", "op": "Maximum", "input": ["StatefulPartitionedCall/clip_by_value_21/Minimum", "StatefulPartitionedCall/onnx_tf_prefix_Constant_101"], "attr": {"T": {"type": "DT_FLOAT"}}}, {"name": "StatefulPartitionedCall/transpose_97", "op": "Transpose", "input": ["StatefulPartitionedCall/clip_by_value_21", "StatefulPartitionedCall/transpose_97/perm"], "attr": {"Tperm": {"type": "DT_INT32"}, "T": {"type": "DT_FLOAT"}}}, {"name": "StatefulPartitionedCall/convolution_21", "op": "Conv2D", "input": ["StatefulPartitionedCall/transpose_97", "StatefulPartitionedCall/split_21"], "device": "/device:CPU:0", "attr": {"dilations": {"list": {"i": ["1", "1", "1", "1"]}}, "T": {"type": "DT_FLOAT"}, "use_cudnn_on_gpu": {"b": true}, "explicit_paddings": {"list": {}}, "padding": {"s": "VkFMSUQ="}, "data_format": {"s": "TkhXQw=="}, "strides": {"list": {"i": ["1", "1", "1", "1"]}}}}, {"name": "StatefulPartitionedCall/Add_32", "op": "Add", "input": ["StatefulPartitionedCall/convolution_21", "unknown_64"], "attr": {"T": {"type": "DT_FLOAT"}}}, {"name": "StatefulPartitionedCall/transpose_98", "op": "Transpose", "input": ["StatefulPartitionedCall/Add_32", "StatefulPartitionedCall/transpose_98/perm"], "attr": {"Tperm": {"type": "DT_INT32"}, "T": {"type": "DT_FLOAT"}}}, {"name": "StatefulPartitionedCall/convolution_22", "op": "Conv2D", "input": ["StatefulPartitionedCall/Add_32", "StatefulPartitionedCall/split_22"], "device": "/device:CPU:0", "attr": {"use_cudnn_on_gpu": {"b": true}, "strides": {"list": {"i": ["1", "1", "1", "1"]}}, "data_format": {"s": "TkhXQw=="}, "dilations": {"list": {"i": ["1", "1", "1", "1"]}}, "explicit_paddings": {"list": {}}, "T": {"type": "DT_FLOAT"}, "padding": {"s": "VkFMSUQ="}}}, {"name": "StatefulPartitionedCall/Add_33", "op": "Add", "input": ["StatefulPartitionedCall/convolution_22", "unknown_66"], "attr": {"T": {"type": "DT_FLOAT"}}}, {"name": "StatefulPartitionedCall/transpose_101", "op": "Transpose", "input": ["StatefulPartitionedCall/Add_33", "StatefulPartitionedCall/transpose_101/perm"], "attr": {"T": {"type": "DT_FLOAT"}, "Tperm": {"type": "DT_INT32"}}}, {"name": "StatefulPartitionedCall/clip_by_value_22/Minimum", "op": "Minimum", "input": ["StatefulPartitionedCall/transpose_101", "StatefulPartitionedCall/onnx_tf_prefix_Constant_107"], "attr": {"T": {"type": "DT_FLOAT"}}}, {"name": "StatefulPartitionedCall/clip_by_value_22", "op": "Maximum", "input": ["StatefulPartitionedCall/clip_by_value_22/Minimum", "StatefulPartitionedCall/onnx_tf_prefix_Constant_106"], "attr": {"T": {"type": "DT_FLOAT"}}}, {"name": "StatefulPartitionedCall/Pad_12", "op": "Pad", "input": ["StatefulPartitionedCall/clip_by_value_22", "StatefulPartitionedCall/Const_12"], "attr": {"Tpaddings": {"type": "DT_INT32"}, "T": {"type": "DT_FLOAT"}}}, {"name": "StatefulPartitionedCall/transpose_103", "op": "Transpose", "input": ["StatefulPartitionedCall/Pad_12", "StatefulPartitionedCall/transpose_103/perm"], "attr": {"Tperm": {"type": "DT_INT32"}, "T": {"type": "DT_FLOAT"}}}, {"name": "StatefulPartitionedCall/depthwise_11", "op": "DepthwiseConv2dNative", "input": ["StatefulPartitionedCall/transpose_103", "StatefulPartitionedCall/Reshape_11"], "attr": {"strides": {"list": {"i": ["1", "1", "1", "1"]}}, "explicit_paddings": {"list": {}}, "data_format": {"s": "TkhXQw=="}, "padding": {"s": "VkFMSUQ="}, "dilations": {"list": {"i": ["1", "1", "1", "1"]}}, "T": {"type": "DT_FLOAT"}}}, {"name": "StatefulPartitionedCall/Add_34", "op": "Add", "input": ["StatefulPartitionedCall/depthwise_11", "unknown_68"], "attr": {"T": {"type": "DT_FLOAT"}}}, {"name": "StatefulPartitionedCall/transpose_104", "op": "Transpose", "input": ["StatefulPartitionedCall/Add_34", "StatefulPartitionedCall/transpose_104/perm"], "attr": {"Tperm": {"type": "DT_INT32"}, "T": {"type": "DT_FLOAT"}}}, {"name": "StatefulPartitionedCall/clip_by_value_23/Minimum", "op": "Minimum", "input": ["StatefulPartitionedCall/transpose_104", "StatefulPartitionedCall/onnx_tf_prefix_Constant_111"], "attr": {"T": {"type": "DT_FLOAT"}}}, {"name": "StatefulPartitionedCall/clip_by_value_23", "op": "Maximum", "input": ["StatefulPartitionedCall/clip_by_value_23/Minimum", "StatefulPartitionedCall/onnx_tf_prefix_Constant_110"], "attr": {"T": {"type": "DT_FLOAT"}}}, {"name": "StatefulPartitionedCall/transpose_106", "op": "Transpose", "input": ["StatefulPartitionedCall/clip_by_value_23", "StatefulPartitionedCall/transpose_106/perm"], "attr": {"T": {"type": "DT_FLOAT"}, "Tperm": {"type": "DT_INT32"}}}, {"name": "StatefulPartitionedCall/convolution_23", "op": "Conv2D", "input": ["StatefulPartitionedCall/transpose_106", "StatefulPartitionedCall/split_23"], "device": "/device:CPU:0", "attr": {"strides": {"list": {"i": ["1", "1", "1", "1"]}}, "use_cudnn_on_gpu": {"b": true}, "explicit_paddings": {"list": {}}, "data_format": {"s": "TkhXQw=="}, "padding": {"s": "VkFMSUQ="}, "T": {"type": "DT_FLOAT"}, "dilations": {"list": {"i": ["1", "1", "1", "1"]}}}}, {"name": "StatefulPartitionedCall/Add_35", "op": "Add", "input": ["StatefulPartitionedCall/convolution_23", "unknown_70"], "attr": {"T": {"type": "DT_FLOAT"}}}, {"name": "StatefulPartitionedCall/transpose_107", "op": "Transpose", "input": ["StatefulPartitionedCall/Add_35", "StatefulPartitionedCall/transpose_107/perm"], "attr": {"Tperm": {"type": "DT_INT32"}, "T": {"type": "DT_FLOAT"}}}, {"name": "StatefulPartitionedCall/onnx_tf_prefix_Add_114", "op": "Add", "input": ["StatefulPartitionedCall/transpose_98", "StatefulPartitionedCall/transpose_107"], "attr": {"T": {"type": "DT_FLOAT"}}}, {"name": "StatefulPartitionedCall/transpose_109", "op": "Transpose", "input": ["StatefulPartitionedCall/onnx_tf_prefix_Add_114", "StatefulPartitionedCall/transpose_109/perm"], "attr": {"Tperm": {"type": "DT_INT32"}, "T": {"type": "DT_FLOAT"}}}, {"name": "StatefulPartitionedCall/convolution_24", "op": "Conv2D", "input": ["StatefulPartitionedCall/transpose_109", "StatefulPartitionedCall/split_24"], "device": "/device:CPU:0", "attr": {"use_cudnn_on_gpu": {"b": true}, "data_format": {"s": "TkhXQw=="}, "dilations": {"list": {"i": ["1", "1", "1", "1"]}}, "T": {"type": "DT_FLOAT"}, "strides": {"list": {"i": ["1", "1", "1", "1"]}}, "padding": {"s": "VkFMSUQ="}, "explicit_paddings": {"list": {}}}}, {"name": "StatefulPartitionedCall/Add_36", "op": "Add", "input": ["StatefulPartitionedCall/convolution_24", "unknown_72"], "attr": {"T": {"type": "DT_FLOAT"}}}, {"name": "StatefulPartitionedCall/transpose_110", "op": "Transpose", "input": ["StatefulPartitionedCall/Add_36", "StatefulPartitionedCall/transpose_110/perm"], "attr": {"T": {"type": "DT_FLOAT"}, "Tperm": {"type": "DT_INT32"}}}, {"name": "StatefulPartitionedCall/clip_by_value_24/Minimum", "op": "Minimum", "input": ["StatefulPartitionedCall/transpose_110", "StatefulPartitionedCall/onnx_tf_prefix_Constant_117"], "attr": {"T": {"type": "DT_FLOAT"}}}, {"name": "StatefulPartitionedCall/clip_by_value_24", "op": "Maximum", "input": ["StatefulPartitionedCall/clip_by_value_24/Minimum", "StatefulPartitionedCall/onnx_tf_prefix_Constant_116"], "attr": {"T": {"type": "DT_FLOAT"}}}, {"name": "StatefulPartitionedCall/Pad_13", "op": "Pad", "input": ["StatefulPartitionedCall/clip_by_value_24", "StatefulPartitionedCall/Const_13"], "attr": {"T": {"type": "DT_FLOAT"}, "Tpaddings": {"type": "DT_INT32"}}}, {"name": "StatefulPartitionedCall/transpose_112", "op": "Transpose", "input": ["StatefulPartitionedCall/Pad_13", "StatefulPartitionedCall/transpose_112/perm"], "attr": {"Tperm": {"type": "DT_INT32"}, "T": {"type": "DT_FLOAT"}}}, {"name": "StatefulPartitionedCall/depthwise_12", "op": "DepthwiseConv2dNative", "input": ["StatefulPartitionedCall/transpose_112", "StatefulPartitionedCall/Reshape_12"], "attr": {"T": {"type": "DT_FLOAT"}, "padding": {"s": "VkFMSUQ="}, "strides": {"list": {"i": ["1", "1", "1", "1"]}}, "explicit_paddings": {"list": {}}, "dilations": {"list": {"i": ["1", "1", "1", "1"]}}, "data_format": {"s": "TkhXQw=="}}}, {"name": "StatefulPartitionedCall/Add_37", "op": "Add", "input": ["StatefulPartitionedCall/depthwise_12", "unknown_74"], "attr": {"T": {"type": "DT_FLOAT"}}}, {"name": "StatefulPartitionedCall/transpose_113", "op": "Transpose", "input": ["StatefulPartitionedCall/Add_37", "StatefulPartitionedCall/transpose_113/perm"], "attr": {"T": {"type": "DT_FLOAT"}, "Tperm": {"type": "DT_INT32"}}}, {"name": "StatefulPartitionedCall/clip_by_value_25/Minimum", "op": "Minimum", "input": ["StatefulPartitionedCall/transpose_113", "StatefulPartitionedCall/onnx_tf_prefix_Constant_121"], "attr": {"T": {"type": "DT_FLOAT"}}}, {"name": "StatefulPartitionedCall/clip_by_value_25", "op": "Maximum", "input": ["StatefulPartitionedCall/clip_by_value_25/Minimum", "StatefulPartitionedCall/onnx_tf_prefix_Constant_120"], "attr": {"T": {"type": "DT_FLOAT"}}}, {"name": "StatefulPartitionedCall/transpose_115", "op": "Transpose", "input": ["StatefulPartitionedCall/clip_by_value_25", "StatefulPartitionedCall/transpose_115/perm"], "attr": {"T": {"type": "DT_FLOAT"}, "Tperm": {"type": "DT_INT32"}}}, {"name": "StatefulPartitionedCall/convolution_25", "op": "Conv2D", "input": ["StatefulPartitionedCall/transpose_115", "StatefulPartitionedCall/split_25"], "device": "/device:CPU:0", "attr": {"padding": {"s": "VkFMSUQ="}, "dilations": {"list": {"i": ["1", "1", "1", "1"]}}, "T": {"type": "DT_FLOAT"}, "explicit_paddings": {"list": {}}, "use_cudnn_on_gpu": {"b": true}, "data_format": {"s": "TkhXQw=="}, "strides": {"list": {"i": ["1", "1", "1", "1"]}}}}, {"name": "StatefulPartitionedCall/Add_38", "op": "Add", "input": ["StatefulPartitionedCall/convolution_25", "unknown_76"], "attr": {"T": {"type": "DT_FLOAT"}}}, {"name": "StatefulPartitionedCall/transpose_116", "op": "Transpose", "input": ["StatefulPartitionedCall/Add_38", "StatefulPartitionedCall/transpose_116/perm"], "attr": {"Tperm": {"type": "DT_INT32"}, "T": {"type": "DT_FLOAT"}}}, {"name": "StatefulPartitionedCall/onnx_tf_prefix_Add_124", "op": "Add", "input": ["StatefulPartitionedCall/onnx_tf_prefix_Add_114", "StatefulPartitionedCall/transpose_116"], "attr": {"T": {"type": "DT_FLOAT"}}}, {"name": "StatefulPartitionedCall/transpose_118", "op": "Transpose", "input": ["StatefulPartitionedCall/onnx_tf_prefix_Add_124", "StatefulPartitionedCall/transpose_118/perm"], "attr": {"Tperm": {"type": "DT_INT32"}, "T": {"type": "DT_FLOAT"}}}, {"name": "StatefulPartitionedCall/convolution_26", "op": "Conv2D", "input": ["StatefulPartitionedCall/transpose_118", "StatefulPartitionedCall/split_26"], "device": "/device:CPU:0", "attr": {"use_cudnn_on_gpu": {"b": true}, "explicit_paddings": {"list": {}}, "strides": {"list": {"i": ["1", "1", "1", "1"]}}, "T": {"type": "DT_FLOAT"}, "data_format": {"s": "TkhXQw=="}, "padding": {"s": "VkFMSUQ="}, "dilations": {"list": {"i": ["1", "1", "1", "1"]}}}}, {"name": "StatefulPartitionedCall/Add_39", "op": "Add", "input": ["StatefulPartitionedCall/convolution_26", "unknown_78"], "attr": {"T": {"type": "DT_FLOAT"}}}, {"name": "StatefulPartitionedCall/transpose_119", "op": "Transpose", "input": ["StatefulPartitionedCall/Add_39", "StatefulPartitionedCall/transpose_119/perm"], "attr": {"Tperm": {"type": "DT_INT32"}, "T": {"type": "DT_FLOAT"}}}, {"name": "StatefulPartitionedCall/clip_by_value_26/Minimum", "op": "Minimum", "input": ["StatefulPartitionedCall/transpose_119", "StatefulPartitionedCall/onnx_tf_prefix_Constant_127"], "attr": {"T": {"type": "DT_FLOAT"}}}, {"name": "StatefulPartitionedCall/clip_by_value_26", "op": "Maximum", "input": ["StatefulPartitionedCall/clip_by_value_26/Minimum", "StatefulPartitionedCall/onnx_tf_prefix_Constant_126"], "attr": {"T": {"type": "DT_FLOAT"}}}, {"name": "StatefulPartitionedCall/Pad_14", "op": "Pad", "input": ["StatefulPartitionedCall/clip_by_value_26", "StatefulPartitionedCall/Const_14"], "attr": {"T": {"type": "DT_FLOAT"}, "Tpaddings": {"type": "DT_INT32"}}}, {"name": "StatefulPartitionedCall/transpose_121", "op": "Transpose", "input": ["StatefulPartitionedCall/Pad_14", "StatefulPartitionedCall/transpose_121/perm"], "attr": {"Tperm": {"type": "DT_INT32"}, "T": {"type": "DT_FLOAT"}}}, {"name": "StatefulPartitionedCall/depthwise_13", "op": "DepthwiseConv2dNative", "input": ["StatefulPartitionedCall/transpose_121", "StatefulPartitionedCall/Reshape_13"], "attr": {"dilations": {"list": {"i": ["1", "1", "1", "1"]}}, "T": {"type": "DT_FLOAT"}, "data_format": {"s": "TkhXQw=="}, "strides": {"list": {"i": ["1", "2", "2", "1"]}}, "explicit_paddings": {"list": {}}, "padding": {"s": "VkFMSUQ="}}}, {"name": "StatefulPartitionedCall/Add_40", "op": "Add", "input": ["StatefulPartitionedCall/depthwise_13", "unknown_80"], "attr": {"T": {"type": "DT_FLOAT"}}}, {"name": "StatefulPartitionedCall/transpose_122", "op": "Transpose", "input": ["StatefulPartitionedCall/Add_40", "StatefulPartitionedCall/transpose_122/perm"], "attr": {"Tperm": {"type": "DT_INT32"}, "T": {"type": "DT_FLOAT"}}}, {"name": "StatefulPartitionedCall/clip_by_value_27/Minimum", "op": "Minimum", "input": ["StatefulPartitionedCall/transpose_122", "StatefulPartitionedCall/onnx_tf_prefix_Constant_131"], "attr": {"T": {"type": "DT_FLOAT"}}}, {"name": "StatefulPartitionedCall/clip_by_value_27", "op": "Maximum", "input": ["StatefulPartitionedCall/clip_by_value_27/Minimum", "StatefulPartitionedCall/onnx_tf_prefix_Constant_130"], "attr": {"T": {"type": "DT_FLOAT"}}}, {"name": "StatefulPartitionedCall/transpose_124", "op": "Transpose", "input": ["StatefulPartitionedCall/clip_by_value_27", "StatefulPartitionedCall/transpose_124/perm"], "attr": {"T": {"type": "DT_FLOAT"}, "Tperm": {"type": "DT_INT32"}}}, {"name": "StatefulPartitionedCall/convolution_27", "op": "Conv2D", "input": ["StatefulPartitionedCall/transpose_124", "StatefulPartitionedCall/split_27"], "device": "/device:CPU:0", "attr": {"strides": {"list": {"i": ["1", "1", "1", "1"]}}, "T": {"type": "DT_FLOAT"}, "use_cudnn_on_gpu": {"b": true}, "data_format": {"s": "TkhXQw=="}, "explicit_paddings": {"list": {}}, "dilations": {"list": {"i": ["1", "1", "1", "1"]}}, "padding": {"s": "VkFMSUQ="}}}, {"name": "StatefulPartitionedCall/Add_41", "op": "Add", "input": ["StatefulPartitionedCall/convolution_27", "unknown_82"], "attr": {"T": {"type": "DT_FLOAT"}}}, {"name": "StatefulPartitionedCall/transpose_125", "op": "Transpose", "input": ["StatefulPartitionedCall/Add_41", "StatefulPartitionedCall/transpose_125/perm"], "attr": {"T": {"type": "DT_FLOAT"}, "Tperm": {"type": "DT_INT32"}}}, {"name": "StatefulPartitionedCall/convolution_28", "op": "Conv2D", "input": ["StatefulPartitionedCall/Add_41", "StatefulPartitionedCall/split_28"], "device": "/device:CPU:0", "attr": {"padding": {"s": "VkFMSUQ="}, "use_cudnn_on_gpu": {"b": true}, "dilations": {"list": {"i": ["1", "1", "1", "1"]}}, "data_format": {"s": "TkhXQw=="}, "explicit_paddings": {"list": {}}, "strides": {"list": {"i": ["1", "1", "1", "1"]}}, "T": {"type": "DT_FLOAT"}}}, {"name": "StatefulPartitionedCall/Add_42", "op": "Add", "input": ["StatefulPartitionedCall/convolution_28", "unknown_84"], "attr": {"T": {"type": "DT_FLOAT"}}}, {"name": "StatefulPartitionedCall/transpose_128", "op": "Transpose", "input": ["StatefulPartitionedCall/Add_42", "StatefulPartitionedCall/transpose_128/perm"], "attr": {"T": {"type": "DT_FLOAT"}, "Tperm": {"type": "DT_INT32"}}}, {"name": "StatefulPartitionedCall/clip_by_value_28/Minimum", "op": "Minimum", "input": ["StatefulPartitionedCall/transpose_128", "StatefulPartitionedCall/onnx_tf_prefix_Constant_136"], "attr": {"T": {"type": "DT_FLOAT"}}}, {"name": "StatefulPartitionedCall/clip_by_value_28", "op": "Maximum", "input": ["StatefulPartitionedCall/clip_by_value_28/Minimum", "StatefulPartitionedCall/onnx_tf_prefix_Constant_135"], "attr": {"T": {"type": "DT_FLOAT"}}}, {"name": "StatefulPartitionedCall/Pad_15", "op": "Pad", "input": ["StatefulPartitionedCall/clip_by_value_28", "StatefulPartitionedCall/Const_15"], "attr": {"Tpaddings": {"type": "DT_INT32"}, "T": {"type": "DT_FLOAT"}}}, {"name": "StatefulPartitionedCall/transpose_130", "op": "Transpose", "input": ["StatefulPartitionedCall/Pad_15", "StatefulPartitionedCall/transpose_130/perm"], "attr": {"Tperm": {"type": "DT_INT32"}, "T": {"type": "DT_FLOAT"}}}, {"name": "StatefulPartitionedCall/depthwise_14", "op": "DepthwiseConv2dNative", "input": ["StatefulPartitionedCall/transpose_130", "StatefulPartitionedCall/Reshape_14"], "attr": {"explicit_paddings": {"list": {}}, "data_format": {"s": "TkhXQw=="}, "strides": {"list": {"i": ["1", "1", "1", "1"]}}, "padding": {"s": "VkFMSUQ="}, "T": {"type": "DT_FLOAT"}, "dilations": {"list": {"i": ["1", "1", "1", "1"]}}}}, {"name": "StatefulPartitionedCall/Add_43", "op": "Add", "input": ["StatefulPartitionedCall/depthwise_14", "unknown_86"], "attr": {"T": {"type": "DT_FLOAT"}}}, {"name": "StatefulPartitionedCall/transpose_131", "op": "Transpose", "input": ["StatefulPartitionedCall/Add_43", "StatefulPartitionedCall/transpose_131/perm"], "attr": {"Tperm": {"type": "DT_INT32"}, "T": {"type": "DT_FLOAT"}}}, {"name": "StatefulPartitionedCall/clip_by_value_29/Minimum", "op": "Minimum", "input": ["StatefulPartitionedCall/transpose_131", "StatefulPartitionedCall/onnx_tf_prefix_Constant_140"], "attr": {"T": {"type": "DT_FLOAT"}}}, {"name": "StatefulPartitionedCall/clip_by_value_29", "op": "Maximum", "input": ["StatefulPartitionedCall/clip_by_value_29/Minimum", "StatefulPartitionedCall/onnx_tf_prefix_Constant_139"], "attr": {"T": {"type": "DT_FLOAT"}}}, {"name": "StatefulPartitionedCall/transpose_133", "op": "Transpose", "input": ["StatefulPartitionedCall/clip_by_value_29", "StatefulPartitionedCall/transpose_133/perm"], "attr": {"Tperm": {"type": "DT_INT32"}, "T": {"type": "DT_FLOAT"}}}, {"name": "StatefulPartitionedCall/convolution_29", "op": "Conv2D", "input": ["StatefulPartitionedCall/transpose_133", "StatefulPartitionedCall/split_29"], "device": "/device:CPU:0", "attr": {"dilations": {"list": {"i": ["1", "1", "1", "1"]}}, "data_format": {"s": "TkhXQw=="}, "explicit_paddings": {"list": {}}, "padding": {"s": "VkFMSUQ="}, "T": {"type": "DT_FLOAT"}, "strides": {"list": {"i": ["1", "1", "1", "1"]}}, "use_cudnn_on_gpu": {"b": true}}}, {"name": "StatefulPartitionedCall/Add_44", "op": "Add", "input": ["StatefulPartitionedCall/convolution_29", "unknown_88"], "attr": {"T": {"type": "DT_FLOAT"}}}, {"name": "StatefulPartitionedCall/transpose_134", "op": "Transpose", "input": ["StatefulPartitionedCall/Add_44", "StatefulPartitionedCall/transpose_134/perm"], "attr": {"Tperm": {"type": "DT_INT32"}, "T": {"type": "DT_FLOAT"}}}, {"name": "StatefulPartitionedCall/onnx_tf_prefix_Add_143", "op": "Add", "input": ["StatefulPartitionedCall/transpose_125", "StatefulPartitionedCall/transpose_134"], "attr": {"T": {"type": "DT_FLOAT"}}}, {"name": "StatefulPartitionedCall/transpose_136", "op": "Transpose", "input": ["StatefulPartitionedCall/onnx_tf_prefix_Add_143", "StatefulPartitionedCall/transpose_136/perm"], "attr": {"T": {"type": "DT_FLOAT"}, "Tperm": {"type": "DT_INT32"}}}, {"name": "StatefulPartitionedCall/convolution_30", "op": "Conv2D", "input": ["StatefulPartitionedCall/transpose_136", "StatefulPartitionedCall/split_30"], "device": "/device:CPU:0", "attr": {"explicit_paddings": {"list": {}}, "padding": {"s": "VkFMSUQ="}, "use_cudnn_on_gpu": {"b": true}, "T": {"type": "DT_FLOAT"}, "dilations": {"list": {"i": ["1", "1", "1", "1"]}}, "strides": {"list": {"i": ["1", "1", "1", "1"]}}, "data_format": {"s": "TkhXQw=="}}}, {"name": "StatefulPartitionedCall/Add_45", "op": "Add", "input": ["StatefulPartitionedCall/convolution_30", "unknown_90"], "attr": {"T": {"type": "DT_FLOAT"}}}, {"name": "StatefulPartitionedCall/transpose_137", "op": "Transpose", "input": ["StatefulPartitionedCall/Add_45", "StatefulPartitionedCall/transpose_137/perm"], "attr": {"Tperm": {"type": "DT_INT32"}, "T": {"type": "DT_FLOAT"}}}, {"name": "StatefulPartitionedCall/clip_by_value_30/Minimum", "op": "Minimum", "input": ["StatefulPartitionedCall/transpose_137", "StatefulPartitionedCall/onnx_tf_prefix_Constant_146"], "attr": {"T": {"type": "DT_FLOAT"}}}, {"name": "StatefulPartitionedCall/clip_by_value_30", "op": "Maximum", "input": ["StatefulPartitionedCall/clip_by_value_30/Minimum", "StatefulPartitionedCall/onnx_tf_prefix_Constant_145"], "attr": {"T": {"type": "DT_FLOAT"}}}, {"name": "StatefulPartitionedCall/Pad_16", "op": "Pad", "input": ["StatefulPartitionedCall/clip_by_value_30", "StatefulPartitionedCall/Const_16"], "attr": {"Tpaddings": {"type": "DT_INT32"}, "T": {"type": "DT_FLOAT"}}}, {"name": "StatefulPartitionedCall/transpose_139", "op": "Transpose", "input": ["StatefulPartitionedCall/Pad_16", "StatefulPartitionedCall/transpose_139/perm"], "attr": {"T": {"type": "DT_FLOAT"}, "Tperm": {"type": "DT_INT32"}}}, {"name": "StatefulPartitionedCall/depthwise_15", "op": "DepthwiseConv2dNative", "input": ["StatefulPartitionedCall/transpose_139", "StatefulPartitionedCall/Reshape_15"], "attr": {"padding": {"s": "VkFMSUQ="}, "strides": {"list": {"i": ["1", "1", "1", "1"]}}, "T": {"type": "DT_FLOAT"}, "data_format": {"s": "TkhXQw=="}, "dilations": {"list": {"i": ["1", "1", "1", "1"]}}, "explicit_paddings": {"list": {}}}}, {"name": "StatefulPartitionedCall/Add_46", "op": "Add", "input": ["StatefulPartitionedCall/depthwise_15", "unknown_92"], "attr": {"T": {"type": "DT_FLOAT"}}}, {"name": "StatefulPartitionedCall/transpose_140", "op": "Transpose", "input": ["StatefulPartitionedCall/Add_46", "StatefulPartitionedCall/transpose_140/perm"], "attr": {"Tperm": {"type": "DT_INT32"}, "T": {"type": "DT_FLOAT"}}}, {"name": "StatefulPartitionedCall/clip_by_value_31/Minimum", "op": "Minimum", "input": ["StatefulPartitionedCall/transpose_140", "StatefulPartitionedCall/onnx_tf_prefix_Constant_150"], "attr": {"T": {"type": "DT_FLOAT"}}}, {"name": "StatefulPartitionedCall/clip_by_value_31", "op": "Maximum", "input": ["StatefulPartitionedCall/clip_by_value_31/Minimum", "StatefulPartitionedCall/onnx_tf_prefix_Constant_149"], "attr": {"T": {"type": "DT_FLOAT"}}}, {"name": "StatefulPartitionedCall/transpose_142", "op": "Transpose", "input": ["StatefulPartitionedCall/clip_by_value_31", "StatefulPartitionedCall/transpose_142/perm"], "attr": {"Tperm": {"type": "DT_INT32"}, "T": {"type": "DT_FLOAT"}}}, {"name": "StatefulPartitionedCall/convolution_31", "op": "Conv2D", "input": ["StatefulPartitionedCall/transpose_142", "StatefulPartitionedCall/split_31"], "device": "/device:CPU:0", "attr": {"strides": {"list": {"i": ["1", "1", "1", "1"]}}, "explicit_paddings": {"list": {}}, "T": {"type": "DT_FLOAT"}, "dilations": {"list": {"i": ["1", "1", "1", "1"]}}, "data_format": {"s": "TkhXQw=="}, "padding": {"s": "VkFMSUQ="}, "use_cudnn_on_gpu": {"b": true}}}, {"name": "StatefulPartitionedCall/Add_47", "op": "Add", "input": ["StatefulPartitionedCall/convolution_31", "unknown_94"], "attr": {"T": {"type": "DT_FLOAT"}}}, {"name": "StatefulPartitionedCall/transpose_143", "op": "Transpose", "input": ["StatefulPartitionedCall/Add_47", "StatefulPartitionedCall/transpose_143/perm"], "attr": {"Tperm": {"type": "DT_INT32"}, "T": {"type": "DT_FLOAT"}}}, {"name": "StatefulPartitionedCall/onnx_tf_prefix_Add_153", "op": "Add", "input": ["StatefulPartitionedCall/onnx_tf_prefix_Add_143", "StatefulPartitionedCall/transpose_143"], "attr": {"T": {"type": "DT_FLOAT"}}}, {"name": "StatefulPartitionedCall/transpose_145", "op": "Transpose", "input": ["StatefulPartitionedCall/onnx_tf_prefix_Add_153", "StatefulPartitionedCall/transpose_145/perm"], "attr": {"T": {"type": "DT_FLOAT"}, "Tperm": {"type": "DT_INT32"}}}, {"name": "StatefulPartitionedCall/convolution_32", "op": "Conv2D", "input": ["StatefulPartitionedCall/transpose_145", "StatefulPartitionedCall/split_32"], "device": "/device:CPU:0", "attr": {"data_format": {"s": "TkhXQw=="}, "dilations": {"list": {"i": ["1", "1", "1", "1"]}}, "padding": {"s": "VkFMSUQ="}, "T": {"type": "DT_FLOAT"}, "explicit_paddings": {"list": {}}, "strides": {"list": {"i": ["1", "1", "1", "1"]}}, "use_cudnn_on_gpu": {"b": true}}}, {"name": "StatefulPartitionedCall/Add_48", "op": "Add", "input": ["StatefulPartitionedCall/convolution_32", "unknown_96"], "attr": {"T": {"type": "DT_FLOAT"}}}, {"name": "StatefulPartitionedCall/transpose_146", "op": "Transpose", "input": ["StatefulPartitionedCall/Add_48", "StatefulPartitionedCall/transpose_146/perm"], "attr": {"T": {"type": "DT_FLOAT"}, "Tperm": {"type": "DT_INT32"}}}, {"name": "StatefulPartitionedCall/clip_by_value_32/Minimum", "op": "Minimum", "input": ["StatefulPartitionedCall/transpose_146", "StatefulPartitionedCall/onnx_tf_prefix_Constant_156"], "attr": {"T": {"type": "DT_FLOAT"}}}, {"name": "StatefulPartitionedCall/clip_by_value_32", "op": "Maximum", "input": ["StatefulPartitionedCall/clip_by_value_32/Minimum", "StatefulPartitionedCall/onnx_tf_prefix_Constant_155"], "attr": {"T": {"type": "DT_FLOAT"}}}, {"name": "StatefulPartitionedCall/Pad_17", "op": "Pad", "input": ["StatefulPartitionedCall/clip_by_value_32", "StatefulPartitionedCall/Const_17"], "attr": {"Tpaddings": {"type": "DT_INT32"}, "T": {"type": "DT_FLOAT"}}}, {"name": "StatefulPartitionedCall/transpose_148", "op": "Transpose", "input": ["StatefulPartitionedCall/Pad_17", "StatefulPartitionedCall/transpose_148/perm"], "attr": {"Tperm": {"type": "DT_INT32"}, "T": {"type": "DT_FLOAT"}}}, {"name": "StatefulPartitionedCall/depthwise_16", "op": "DepthwiseConv2dNative", "input": ["StatefulPartitionedCall/transpose_148", "StatefulPartitionedCall/Reshape_16"], "attr": {"dilations": {"list": {"i": ["1", "1", "1", "1"]}}, "T": {"type": "DT_FLOAT"}, "padding": {"s": "VkFMSUQ="}, "data_format": {"s": "TkhXQw=="}, "strides": {"list": {"i": ["1", "1", "1", "1"]}}, "explicit_paddings": {"list": {}}}}, {"name": "StatefulPartitionedCall/Add_49", "op": "Add", "input": ["StatefulPartitionedCall/depthwise_16", "unknown_98"], "attr": {"T": {"type": "DT_FLOAT"}}}, {"name": "StatefulPartitionedCall/transpose_149", "op": "Transpose", "input": ["StatefulPartitionedCall/Add_49", "StatefulPartitionedCall/transpose_149/perm"], "attr": {"Tperm": {"type": "DT_INT32"}, "T": {"type": "DT_FLOAT"}}}, {"name": "StatefulPartitionedCall/clip_by_value_33/Minimum", "op": "Minimum", "input": ["StatefulPartitionedCall/transpose_149", "StatefulPartitionedCall/onnx_tf_prefix_Constant_160"], "attr": {"T": {"type": "DT_FLOAT"}}}, {"name": "StatefulPartitionedCall/clip_by_value_33", "op": "Maximum", "input": ["StatefulPartitionedCall/clip_by_value_33/Minimum", "StatefulPartitionedCall/onnx_tf_prefix_Constant_159"], "attr": {"T": {"type": "DT_FLOAT"}}}, {"name": "StatefulPartitionedCall/transpose_151", "op": "Transpose", "input": ["StatefulPartitionedCall/clip_by_value_33", "StatefulPartitionedCall/transpose_151/perm"], "attr": {"Tperm": {"type": "DT_INT32"}, "T": {"type": "DT_FLOAT"}}}, {"name": "StatefulPartitionedCall/convolution_33", "op": "Conv2D", "input": ["StatefulPartitionedCall/transpose_151", "StatefulPartitionedCall/split_33"], "device": "/device:CPU:0", "attr": {"data_format": {"s": "TkhXQw=="}, "strides": {"list": {"i": ["1", "1", "1", "1"]}}, "explicit_paddings": {"list": {}}, "padding": {"s": "VkFMSUQ="}, "use_cudnn_on_gpu": {"b": true}, "T": {"type": "DT_FLOAT"}, "dilations": {"list": {"i": ["1", "1", "1", "1"]}}}}, {"name": "StatefulPartitionedCall/Add_50", "op": "Add", "input": ["StatefulPartitionedCall/convolution_33", "unknown_100"], "attr": {"T": {"type": "DT_FLOAT"}}}, {"name": "StatefulPartitionedCall/convolution_34", "op": "Conv2D", "input": ["StatefulPartitionedCall/Add_50", "StatefulPartitionedCall/split_34"], "device": "/device:CPU:0", "attr": {"padding": {"s": "VkFMSUQ="}, "T": {"type": "DT_FLOAT"}, "explicit_paddings": {"list": {}}, "data_format": {"s": "TkhXQw=="}, "strides": {"list": {"i": ["1", "1", "1", "1"]}}, "use_cudnn_on_gpu": {"b": true}, "dilations": {"list": {"i": ["1", "1", "1", "1"]}}}}, {"name": "StatefulPartitionedCall/Add_51", "op": "Add", "input": ["StatefulPartitionedCall/convolution_34", "unknown_102"], "attr": {"T": {"type": "DT_FLOAT"}}}, {"name": "StatefulPartitionedCall/transpose_155", "op": "Transpose", "input": ["StatefulPartitionedCall/Add_51", "StatefulPartitionedCall/transpose_155/perm"], "attr": {"T": {"type": "DT_FLOAT"}, "Tperm": {"type": "DT_INT32"}}}, {"name": "StatefulPartitionedCall/clip_by_value_34/Minimum", "op": "Minimum", "input": ["StatefulPartitionedCall/transpose_155", "StatefulPartitionedCall/onnx_tf_prefix_Constant_165"], "attr": {"T": {"type": "DT_FLOAT"}}}, {"name": "StatefulPartitionedCall/clip_by_value_34", "op": "Maximum", "input": ["StatefulPartitionedCall/clip_by_value_34/Minimum", "StatefulPartitionedCall/onnx_tf_prefix_Constant_164"], "attr": {"T": {"type": "DT_FLOAT"}}}, {"name": "StatefulPartitionedCall/Mean", "op": "Mean", "input": ["StatefulPartitionedCall/clip_by_value_34", "ConstantFolding/StatefulPartitionedCall/split_35-folded-1"], "attr": {"Tidx": {"type": "DT_INT32"}, "T": {"type": "DT_FLOAT"}, "keep_dims": {"b": true}}}, {"name": "StatefulPartitionedCall/flatten/Reshape", "op": "Reshape", "input": ["StatefulPartitionedCall/Mean", "StatefulPartitionedCall/flatten/Const"], "attr": {"T": {"type": "DT_FLOAT"}, "Tshape": {"type": "DT_INT32"}}}, {"name": "StatefulPartitionedCall/MatMul", "op": "MatMul", "input": ["StatefulPartitionedCall/flatten/Reshape", "StatefulPartitionedCall/transpose_156"], "device": "/device:CPU:0", "attr": {"transpose_a": {"b": false}, "T": {"type": "DT_FLOAT"}, "transpose_b": {"b": false}}}, {"name": "StatefulPartitionedCall/add_54", "op": "AddV2", "input": ["StatefulPartitionedCall/MatMul", "StatefulPartitionedCall/mul_1"], "attr": {"T": {"type": "DT_FLOAT"}}}, {"name": "Identity", "op": "Identity", "input": ["StatefulPartitionedCall/add_54", "^StatefulPartitionedCall/assert_equal_1/Assert/AssertGuard/branch_executed/_119"], "attr": {"T": {"type": "DT_FLOAT"}}}], "library": {}, "versions": {"producer": 808}}, "weightsManifest": [{"paths": ["group1-shard1of3.bin", "group1-shard2of3.bin", "group1-shard3of3.bin"], "weights": [{"name": "StatefulPartitionedCall/transpose_125/perm", "shape": [4], "dtype": "int32"}, {"name": "StatefulPartitionedCall/transpose_98/perm", "shape": [4], "dtype": "int32"}, {"name": "StatefulPartitionedCall/transpose_62/perm", "shape": [4], "dtype": "int32"}, {"name": "StatefulPartitionedCall/transpose_35/perm", "shape": [4], "dtype": "int32"}, {"name": "StatefulPartitionedCall/transpose_17/perm", "shape": [4], "dtype": "int32"}, {"name": "StatefulPartitionedCall/Const", "shape": [4, 2], "dtype": "int32"}, {"name": "StatefulPartitionedCall/transpose_1/perm", "shape": [4], "dtype": "int32"}, {"name": "StatefulPartitionedCall/split", "shape": [3, 3, 3, 32], "dtype": "float32"}, {"name": "unknown_0", "shape": [32], "dtype": "float32"}, {"name": "StatefulPartitionedCall/transpose_2/perm", "shape": [4], "dtype": "int32"}, {"name": "StatefulPartitionedCall/onnx_tf_prefix_Constant_2", "shape": [], "dtype": "float32"}, {"name": "StatefulPartitionedCall/onnx_tf_prefix_Constant_1", "shape": [], "dtype": "float32"}, {"name": "StatefulPartitionedCall/Const_1", "shape": [4, 2], "dtype": "int32"}, {"name": "StatefulPartitionedCall/transpose_4/perm", "shape": [4], "dtype": "int32"}, {"name": "StatefulPartitionedCall/Reshape", "shape": [3, 3, 32, 1], "dtype": "float32"}, {"name": "unknown_2", "shape": [32], "dtype": "float32"}, {"name": "StatefulPartitionedCall/transpose_5/perm", "shape": [4], "dtype": "int32"}, {"name": "StatefulPartitionedCall/onnx_tf_prefix_Constant_6", "shape": [], "dtype": "float32"}, {"name": "StatefulPartitionedCall/onnx_tf_prefix_Constant_5", "shape": [], "dtype": "float32"}, {"name": "StatefulPartitionedCall/transpose_7/perm", "shape": [4], "dtype": "int32"}, {"name": "StatefulPartitionedCall/split_1", "shape": [1, 1, 32, 16], "dtype": "float32"}, {"name": "unknown_4", "shape": [16], "dtype": "float32"}, {"name": "StatefulPartitionedCall/split_2", "shape": [1, 1, 16, 96], "dtype": "float32"}, {"name": "unknown_6", "shape": [96], "dtype": "float32"}, {"name": "StatefulPartitionedCall/transpose_11/perm", "shape": [4], "dtype": "int32"}, {"name": "StatefulPartitionedCall/onnx_tf_prefix_Constant_11", "shape": [], "dtype": "float32"}, {"name": "StatefulPartitionedCall/onnx_tf_prefix_Constant_10", "shape": [], "dtype": "float32"}, {"name": "StatefulPartitionedCall/Const_2", "shape": [4, 2], "dtype": "int32"}, {"name": "StatefulPartitionedCall/transpose_13/perm", "shape": [4], "dtype": "int32"}, {"name": "StatefulPartitionedCall/Reshape_1", "shape": [3, 3, 96, 1], "dtype": "float32"}, {"name": "unknown_8", "shape": [96], "dtype": "float32"}, {"name": "StatefulPartitionedCall/transpose_14/perm", "shape": [4], "dtype": "int32"}, {"name": "StatefulPartitionedCall/onnx_tf_prefix_Constant_15", "shape": [], "dtype": "float32"}, {"name": "StatefulPartitionedCall/onnx_tf_prefix_Constant_14", "shape": [], "dtype": "float32"}, {"name": "StatefulPartitionedCall/transpose_16/perm", "shape": [4], "dtype": "int32"}, {"name": "StatefulPartitionedCall/split_3", "shape": [1, 1, 96, 24], "dtype": "float32"}, {"name": "unknown_10", "shape": [24], "dtype": "float32"}, {"name": "StatefulPartitionedCall/split_4", "shape": [1, 1, 24, 144], "dtype": "float32"}, {"name": "unknown_12", "shape": [144], "dtype": "float32"}, {"name": "StatefulPartitionedCall/transpose_20/perm", "shape": [4], "dtype": "int32"}, {"name": "StatefulPartitionedCall/onnx_tf_prefix_Constant_20", "shape": [], "dtype": "float32"}, {"name": "StatefulPartitionedCall/onnx_tf_prefix_Constant_19", "shape": [], "dtype": "float32"}, {"name": "StatefulPartitionedCall/Const_3", "shape": [4, 2], "dtype": "int32"}, {"name": "StatefulPartitionedCall/transpose_22/perm", "shape": [4], "dtype": "int32"}, {"name": "StatefulPartitionedCall/Reshape_2", "shape": [3, 3, 144, 1], "dtype": "float32"}, {"name": "unknown_14", "shape": [144], "dtype": "float32"}, {"name": "StatefulPartitionedCall/transpose_23/perm", "shape": [4], "dtype": "int32"}, {"name": "StatefulPartitionedCall/onnx_tf_prefix_Constant_24", "shape": [], "dtype": "float32"}, {"name": "StatefulPartitionedCall/onnx_tf_prefix_Constant_23", "shape": [], "dtype": "float32"}, {"name": "StatefulPartitionedCall/transpose_25/perm", "shape": [4], "dtype": "int32"}, {"name": "StatefulPartitionedCall/split_5", "shape": [1, 1, 144, 24], "dtype": "float32"}, {"name": "unknown_16", "shape": [24], "dtype": "float32"}, {"name": "StatefulPartitionedCall/transpose_26/perm", "shape": [4], "dtype": "int32"}, {"name": "StatefulPartitionedCall/transpose_28/perm", "shape": [4], "dtype": "int32"}, {"name": "StatefulPartitionedCall/split_6", "shape": [1, 1, 24, 144], "dtype": "float32"}, {"name": "unknown_18", "shape": [144], "dtype": "float32"}, {"name": "StatefulPartitionedCall/transpose_29/perm", "shape": [4], "dtype": "int32"}, {"name": "StatefulPartitionedCall/onnx_tf_prefix_Constant_30", "shape": [], "dtype": "float32"}, {"name": "StatefulPartitionedCall/onnx_tf_prefix_Constant_29", "shape": [], "dtype": "float32"}, {"name": "StatefulPartitionedCall/Const_4", "shape": [4, 2], "dtype": "int32"}, {"name": "StatefulPartitionedCall/transpose_31/perm", "shape": [4], "dtype": "int32"}, {"name": "StatefulPartitionedCall/Reshape_3", "shape": [3, 3, 144, 1], "dtype": "float32"}, {"name": "unknown_20", "shape": [144], "dtype": "float32"}, {"name": "StatefulPartitionedCall/transpose_32/perm", "shape": [4], "dtype": "int32"}, {"name": "StatefulPartitionedCall/onnx_tf_prefix_Constant_34", "shape": [], "dtype": "float32"}, {"name": "StatefulPartitionedCall/onnx_tf_prefix_Constant_33", "shape": [], "dtype": "float32"}, {"name": "StatefulPartitionedCall/transpose_34/perm", "shape": [4], "dtype": "int32"}, {"name": "StatefulPartitionedCall/split_7", "shape": [1, 1, 144, 32], "dtype": "float32"}, {"name": "unknown_22", "shape": [32], "dtype": "float32"}, {"name": "StatefulPartitionedCall/split_8", "shape": [1, 1, 32, 192], "dtype": "float32"}, {"name": "unknown_24", "shape": [192], "dtype": "float32"}, {"name": "StatefulPartitionedCall/transpose_38/perm", "shape": [4], "dtype": "int32"}, {"name": "StatefulPartitionedCall/onnx_tf_prefix_Constant_39", "shape": [], "dtype": "float32"}, {"name": "StatefulPartitionedCall/onnx_tf_prefix_Constant_38", "shape": [], "dtype": "float32"}, {"name": "StatefulPartitionedCall/Const_5", "shape": [4, 2], "dtype": "int32"}, {"name": "StatefulPartitionedCall/transpose_40/perm", "shape": [4], "dtype": "int32"}, {"name": "StatefulPartitionedCall/Reshape_4", "shape": [3, 3, 192, 1], "dtype": "float32"}, {"name": "unknown_26", "shape": [192], "dtype": "float32"}, {"name": "StatefulPartitionedCall/transpose_41/perm", "shape": [4], "dtype": "int32"}, {"name": "StatefulPartitionedCall/onnx_tf_prefix_Constant_43", "shape": [], "dtype": "float32"}, {"name": "StatefulPartitionedCall/onnx_tf_prefix_Constant_42", "shape": [], "dtype": "float32"}, {"name": "StatefulPartitionedCall/transpose_43/perm", "shape": [4], "dtype": "int32"}, {"name": "StatefulPartitionedCall/split_9", "shape": [1, 1, 192, 32], "dtype": "float32"}, {"name": "unknown_28", "shape": [32], "dtype": "float32"}, {"name": "StatefulPartitionedCall/transpose_44/perm", "shape": [4], "dtype": "int32"}, {"name": "StatefulPartitionedCall/transpose_46/perm", "shape": [4], "dtype": "int32"}, {"name": "StatefulPartitionedCall/split_10", "shape": [1, 1, 32, 192], "dtype": "float32"}, {"name": "unknown_30", "shape": [192], "dtype": "float32"}, {"name": "StatefulPartitionedCall/transpose_47/perm", "shape": [4], "dtype": "int32"}, {"name": "StatefulPartitionedCall/onnx_tf_prefix_Constant_49", "shape": [], "dtype": "float32"}, {"name": "StatefulPartitionedCall/onnx_tf_prefix_Constant_48", "shape": [], "dtype": "float32"}, {"name": "StatefulPartitionedCall/Const_6", "shape": [4, 2], "dtype": "int32"}, {"name": "StatefulPartitionedCall/transpose_49/perm", "shape": [4], "dtype": "int32"}, {"name": "StatefulPartitionedCall/Reshape_5", "shape": [3, 3, 192, 1], "dtype": "float32"}, {"name": "unknown_32", "shape": [192], "dtype": "float32"}, {"name": "StatefulPartitionedCall/transpose_50/perm", "shape": [4], "dtype": "int32"}, {"name": "StatefulPartitionedCall/onnx_tf_prefix_Constant_53", "shape": [], "dtype": "float32"}, {"name": "StatefulPartitionedCall/onnx_tf_prefix_Constant_52", "shape": [], "dtype": "float32"}, {"name": "StatefulPartitionedCall/transpose_52/perm", "shape": [4], "dtype": "int32"}, {"name": "StatefulPartitionedCall/split_11", "shape": [1, 1, 192, 32], "dtype": "float32"}, {"name": "unknown_34", "shape": [32], "dtype": "float32"}, {"name": "StatefulPartitionedCall/transpose_53/perm", "shape": [4], "dtype": "int32"}, {"name": "StatefulPartitionedCall/transpose_55/perm", "shape": [4], "dtype": "int32"}, {"name": "StatefulPartitionedCall/split_12", "shape": [1, 1, 32, 192], "dtype": "float32"}, {"name": "unknown_36", "shape": [192], "dtype": "float32"}, {"name": "StatefulPartitionedCall/transpose_56/perm", "shape": [4], "dtype": "int32"}, {"name": "StatefulPartitionedCall/onnx_tf_prefix_Constant_59", "shape": [], "dtype": "float32"}, {"name": "StatefulPartitionedCall/onnx_tf_prefix_Constant_58", "shape": [], "dtype": "float32"}, {"name": "StatefulPartitionedCall/Const_7", "shape": [4, 2], "dtype": "int32"}, {"name": "StatefulPartitionedCall/transpose_58/perm", "shape": [4], "dtype": "int32"}, {"name": "StatefulPartitionedCall/Reshape_6", "shape": [3, 3, 192, 1], "dtype": "float32"}, {"name": "unknown_38", "shape": [192], "dtype": "float32"}, {"name": "StatefulPartitionedCall/transpose_59/perm", "shape": [4], "dtype": "int32"}, {"name": "StatefulPartitionedCall/onnx_tf_prefix_Constant_63", "shape": [], "dtype": "float32"}, {"name": "StatefulPartitionedCall/onnx_tf_prefix_Constant_62", "shape": [], "dtype": "float32"}, {"name": "StatefulPartitionedCall/transpose_61/perm", "shape": [4], "dtype": "int32"}, {"name": "StatefulPartitionedCall/split_13", "shape": [1, 1, 192, 64], "dtype": "float32"}, {"name": "unknown_40", "shape": [64], "dtype": "float32"}, {"name": "StatefulPartitionedCall/split_14", "shape": [1, 1, 64, 384], "dtype": "float32"}, {"name": "unknown_42", "shape": [384], "dtype": "float32"}, {"name": "StatefulPartitionedCall/transpose_65/perm", "shape": [4], "dtype": "int32"}, {"name": "StatefulPartitionedCall/onnx_tf_prefix_Constant_68", "shape": [], "dtype": "float32"}, {"name": "StatefulPartitionedCall/onnx_tf_prefix_Constant_67", "shape": [], "dtype": "float32"}, {"name": "StatefulPartitionedCall/Const_8", "shape": [4, 2], "dtype": "int32"}, {"name": "StatefulPartitionedCall/transpose_67/perm", "shape": [4], "dtype": "int32"}, {"name": "StatefulPartitionedCall/Reshape_7", "shape": [3, 3, 384, 1], "dtype": "float32"}, {"name": "unknown_44", "shape": [384], "dtype": "float32"}, {"name": "StatefulPartitionedCall/transpose_68/perm", "shape": [4], "dtype": "int32"}, {"name": "StatefulPartitionedCall/onnx_tf_prefix_Constant_72", "shape": [], "dtype": "float32"}, {"name": "StatefulPartitionedCall/onnx_tf_prefix_Constant_71", "shape": [], "dtype": "float32"}, {"name": "StatefulPartitionedCall/transpose_70/perm", "shape": [4], "dtype": "int32"}, {"name": "StatefulPartitionedCall/split_15", "shape": [1, 1, 384, 64], "dtype": "float32"}, {"name": "unknown_46", "shape": [64], "dtype": "float32"}, {"name": "StatefulPartitionedCall/transpose_71/perm", "shape": [4], "dtype": "int32"}, {"name": "StatefulPartitionedCall/transpose_73/perm", "shape": [4], "dtype": "int32"}, {"name": "StatefulPartitionedCall/split_16", "shape": [1, 1, 64, 384], "dtype": "float32"}, {"name": "unknown_48", "shape": [384], "dtype": "float32"}, {"name": "StatefulPartitionedCall/transpose_74/perm", "shape": [4], "dtype": "int32"}, {"name": "StatefulPartitionedCall/onnx_tf_prefix_Constant_78", "shape": [], "dtype": "float32"}, {"name": "StatefulPartitionedCall/onnx_tf_prefix_Constant_77", "shape": [], "dtype": "float32"}, {"name": "StatefulPartitionedCall/Const_9", "shape": [4, 2], "dtype": "int32"}, {"name": "StatefulPartitionedCall/transpose_76/perm", "shape": [4], "dtype": "int32"}, {"name": "StatefulPartitionedCall/Reshape_8", "shape": [3, 3, 384, 1], "dtype": "float32"}, {"name": "unknown_50", "shape": [384], "dtype": "float32"}, {"name": "StatefulPartitionedCall/transpose_77/perm", "shape": [4], "dtype": "int32"}, {"name": "StatefulPartitionedCall/onnx_tf_prefix_Constant_82", "shape": [], "dtype": "float32"}, {"name": "StatefulPartitionedCall/onnx_tf_prefix_Constant_81", "shape": [], "dtype": "float32"}, {"name": "StatefulPartitionedCall/transpose_79/perm", "shape": [4], "dtype": "int32"}, {"name": "StatefulPartitionedCall/split_17", "shape": [1, 1, 384, 64], "dtype": "float32"}, {"name": "unknown_52", "shape": [64], "dtype": "float32"}, {"name": "StatefulPartitionedCall/transpose_80/perm", "shape": [4], "dtype": "int32"}, {"name": "StatefulPartitionedCall/transpose_82/perm", "shape": [4], "dtype": "int32"}, {"name": "StatefulPartitionedCall/split_18", "shape": [1, 1, 64, 384], "dtype": "float32"}, {"name": "unknown_54", "shape": [384], "dtype": "float32"}, {"name": "StatefulPartitionedCall/transpose_83/perm", "shape": [4], "dtype": "int32"}, {"name": "StatefulPartitionedCall/onnx_tf_prefix_Constant_88", "shape": [], "dtype": "float32"}, {"name": "StatefulPartitionedCall/onnx_tf_prefix_Constant_87", "shape": [], "dtype": "float32"}, {"name": "StatefulPartitionedCall/Const_10", "shape": [4, 2], "dtype": "int32"}, {"name": "StatefulPartitionedCall/transpose_85/perm", "shape": [4], "dtype": "int32"}, {"name": "StatefulPartitionedCall/Reshape_9", "shape": [3, 3, 384, 1], "dtype": "float32"}, {"name": "unknown_56", "shape": [384], "dtype": "float32"}, {"name": "StatefulPartitionedCall/transpose_86/perm", "shape": [4], "dtype": "int32"}, {"name": "StatefulPartitionedCall/onnx_tf_prefix_Constant_92", "shape": [], "dtype": "float32"}, {"name": "StatefulPartitionedCall/onnx_tf_prefix_Constant_91", "shape": [], "dtype": "float32"}, {"name": "StatefulPartitionedCall/transpose_88/perm", "shape": [4], "dtype": "int32"}, {"name": "StatefulPartitionedCall/split_19", "shape": [1, 1, 384, 64], "dtype": "float32"}, {"name": "unknown_58", "shape": [64], "dtype": "float32"}, {"name": "StatefulPartitionedCall/transpose_89/perm", "shape": [4], "dtype": "int32"}, {"name": "StatefulPartitionedCall/transpose_91/perm", "shape": [4], "dtype": "int32"}, {"name": "StatefulPartitionedCall/split_20", "shape": [1, 1, 64, 384], "dtype": "float32"}, {"name": "unknown_60", "shape": [384], "dtype": "float32"}, {"name": "StatefulPartitionedCall/transpose_92/perm", "shape": [4], "dtype": "int32"}, {"name": "StatefulPartitionedCall/onnx_tf_prefix_Constant_98", "shape": [], "dtype": "float32"}, {"name": "StatefulPartitionedCall/onnx_tf_prefix_Constant_97", "shape": [], "dtype": "float32"}, {"name": "StatefulPartitionedCall/Const_11", "shape": [4, 2], "dtype": "int32"}, {"name": "StatefulPartitionedCall/transpose_94/perm", "shape": [4], "dtype": "int32"}, {"name": "StatefulPartitionedCall/Reshape_10", "shape": [3, 3, 384, 1], "dtype": "float32"}, {"name": "unknown_62", "shape": [384], "dtype": "float32"}, {"name": "StatefulPartitionedCall/transpose_95/perm", "shape": [4], "dtype": "int32"}, {"name": "StatefulPartitionedCall/onnx_tf_prefix_Constant_102", "shape": [], "dtype": "float32"}, {"name": "StatefulPartitionedCall/onnx_tf_prefix_Constant_101", "shape": [], "dtype": "float32"}, {"name": "StatefulPartitionedCall/transpose_97/perm", "shape": [4], "dtype": "int32"}, {"name": "StatefulPartitionedCall/split_21", "shape": [1, 1, 384, 96], "dtype": "float32"}, {"name": "unknown_64", "shape": [96], "dtype": "float32"}, {"name": "StatefulPartitionedCall/split_22", "shape": [1, 1, 96, 576], "dtype": "float32"}, {"name": "unknown_66", "shape": [576], "dtype": "float32"}, {"name": "StatefulPartitionedCall/transpose_101/perm", "shape": [4], "dtype": "int32"}, {"name": "StatefulPartitionedCall/onnx_tf_prefix_Constant_107", "shape": [], "dtype": "float32"}, {"name": "StatefulPartitionedCall/onnx_tf_prefix_Constant_106", "shape": [], "dtype": "float32"}, {"name": "StatefulPartitionedCall/Const_12", "shape": [4, 2], "dtype": "int32"}, {"name": "StatefulPartitionedCall/transpose_103/perm", "shape": [4], "dtype": "int32"}, {"name": "StatefulPartitionedCall/Reshape_11", "shape": [3, 3, 576, 1], "dtype": "float32"}, {"name": "unknown_68", "shape": [576], "dtype": "float32"}, {"name": "StatefulPartitionedCall/transpose_104/perm", "shape": [4], "dtype": "int32"}, {"name": "StatefulPartitionedCall/onnx_tf_prefix_Constant_111", "shape": [], "dtype": "float32"}, {"name": "StatefulPartitionedCall/onnx_tf_prefix_Constant_110", "shape": [], "dtype": "float32"}, {"name": "StatefulPartitionedCall/transpose_106/perm", "shape": [4], "dtype": "int32"}, {"name": "StatefulPartitionedCall/split_23", "shape": [1, 1, 576, 96], "dtype": "float32"}, {"name": "unknown_70", "shape": [96], "dtype": "float32"}, {"name": "StatefulPartitionedCall/transpose_107/perm", "shape": [4], "dtype": "int32"}, {"name": "StatefulPartitionedCall/transpose_109/perm", "shape": [4], "dtype": "int32"}, {"name": "StatefulPartitionedCall/split_24", "shape": [1, 1, 96, 576], "dtype": "float32"}, {"name": "unknown_72", "shape": [576], "dtype": "float32"}, {"name": "StatefulPartitionedCall/transpose_110/perm", "shape": [4], "dtype": "int32"}, {"name": "StatefulPartitionedCall/onnx_tf_prefix_Constant_117", "shape": [], "dtype": "float32"}, {"name": "StatefulPartitionedCall/onnx_tf_prefix_Constant_116", "shape": [], "dtype": "float32"}, {"name": "StatefulPartitionedCall/Const_13", "shape": [4, 2], "dtype": "int32"}, {"name": "StatefulPartitionedCall/transpose_112/perm", "shape": [4], "dtype": "int32"}, {"name": "StatefulPartitionedCall/Reshape_12", "shape": [3, 3, 576, 1], "dtype": "float32"}, {"name": "unknown_74", "shape": [576], "dtype": "float32"}, {"name": "StatefulPartitionedCall/transpose_113/perm", "shape": [4], "dtype": "int32"}, {"name": "StatefulPartitionedCall/onnx_tf_prefix_Constant_121", "shape": [], "dtype": "float32"}, {"name": "StatefulPartitionedCall/onnx_tf_prefix_Constant_120", "shape": [], "dtype": "float32"}, {"name": "StatefulPartitionedCall/transpose_115/perm", "shape": [4], "dtype": "int32"}, {"name": "StatefulPartitionedCall/split_25", "shape": [1, 1, 576, 96], "dtype": "float32"}, {"name": "unknown_76", "shape": [96], "dtype": "float32"}, {"name": "StatefulPartitionedCall/transpose_116/perm", "shape": [4], "dtype": "int32"}, {"name": "StatefulPartitionedCall/transpose_118/perm", "shape": [4], "dtype": "int32"}, {"name": "StatefulPartitionedCall/split_26", "shape": [1, 1, 96, 576], "dtype": "float32"}, {"name": "unknown_78", "shape": [576], "dtype": "float32"}, {"name": "StatefulPartitionedCall/transpose_119/perm", "shape": [4], "dtype": "int32"}, {"name": "StatefulPartitionedCall/onnx_tf_prefix_Constant_127", "shape": [], "dtype": "float32"}, {"name": "StatefulPartitionedCall/onnx_tf_prefix_Constant_126", "shape": [], "dtype": "float32"}, {"name": "StatefulPartitionedCall/Const_14", "shape": [4, 2], "dtype": "int32"}, {"name": "StatefulPartitionedCall/transpose_121/perm", "shape": [4], "dtype": "int32"}, {"name": "StatefulPartitionedCall/Reshape_13", "shape": [3, 3, 576, 1], "dtype": "float32"}, {"name": "unknown_80", "shape": [576], "dtype": "float32"}, {"name": "StatefulPartitionedCall/transpose_122/perm", "shape": [4], "dtype": "int32"}, {"name": "StatefulPartitionedCall/onnx_tf_prefix_Constant_131", "shape": [], "dtype": "float32"}, {"name": "StatefulPartitionedCall/onnx_tf_prefix_Constant_130", "shape": [], "dtype": "float32"}, {"name": "StatefulPartitionedCall/transpose_124/perm", "shape": [4], "dtype": "int32"}, {"name": "StatefulPartitionedCall/split_27", "shape": [1, 1, 576, 160], "dtype": "float32"}, {"name": "unknown_82", "shape": [160], "dtype": "float32"}, {"name": "StatefulPartitionedCall/split_28", "shape": [1, 1, 160, 960], "dtype": "float32"}, {"name": "unknown_84", "shape": [960], "dtype": "float32"}, {"name": "StatefulPartitionedCall/transpose_128/perm", "shape": [4], "dtype": "int32"}, {"name": "StatefulPartitionedCall/onnx_tf_prefix_Constant_136", "shape": [], "dtype": "float32"}, {"name": "StatefulPartitionedCall/onnx_tf_prefix_Constant_135", "shape": [], "dtype": "float32"}, {"name": "StatefulPartitionedCall/Const_15", "shape": [4, 2], "dtype": "int32"}, {"name": "StatefulPartitionedCall/transpose_130/perm", "shape": [4], "dtype": "int32"}, {"name": "StatefulPartitionedCall/Reshape_14", "shape": [3, 3, 960, 1], "dtype": "float32"}, {"name": "unknown_86", "shape": [960], "dtype": "float32"}, {"name": "StatefulPartitionedCall/transpose_131/perm", "shape": [4], "dtype": "int32"}, {"name": "StatefulPartitionedCall/onnx_tf_prefix_Constant_140", "shape": [], "dtype": "float32"}, {"name": "StatefulPartitionedCall/onnx_tf_prefix_Constant_139", "shape": [], "dtype": "float32"}, {"name": "StatefulPartitionedCall/transpose_133/perm", "shape": [4], "dtype": "int32"}, {"name": "StatefulPartitionedCall/split_29", "shape": [1, 1, 960, 160], "dtype": "float32"}, {"name": "unknown_88", "shape": [160], "dtype": "float32"}, {"name": "StatefulPartitionedCall/transpose_134/perm", "shape": [4], "dtype": "int32"}, {"name": "StatefulPartitionedCall/transpose_136/perm", "shape": [4], "dtype": "int32"}, {"name": "StatefulPartitionedCall/split_30", "shape": [1, 1, 160, 960], "dtype": "float32"}, {"name": "unknown_90", "shape": [960], "dtype": "float32"}, {"name": "StatefulPartitionedCall/transpose_137/perm", "shape": [4], "dtype": "int32"}, {"name": "StatefulPartitionedCall/onnx_tf_prefix_Constant_146", "shape": [], "dtype": "float32"}, {"name": "StatefulPartitionedCall/onnx_tf_prefix_Constant_145", "shape": [], "dtype": "float32"}, {"name": "StatefulPartitionedCall/Const_16", "shape": [4, 2], "dtype": "int32"}, {"name": "StatefulPartitionedCall/transpose_139/perm", "shape": [4], "dtype": "int32"}, {"name": "StatefulPartitionedCall/Reshape_15", "shape": [3, 3, 960, 1], "dtype": "float32"}, {"name": "unknown_92", "shape": [960], "dtype": "float32"}, {"name": "StatefulPartitionedCall/transpose_140/perm", "shape": [4], "dtype": "int32"}, {"name": "StatefulPartitionedCall/onnx_tf_prefix_Constant_150", "shape": [], "dtype": "float32"}, {"name": "StatefulPartitionedCall/onnx_tf_prefix_Constant_149", "shape": [], "dtype": "float32"}, {"name": "StatefulPartitionedCall/transpose_142/perm", "shape": [4], "dtype": "int32"}, {"name": "StatefulPartitionedCall/split_31", "shape": [1, 1, 960, 160], "dtype": "float32"}, {"name": "unknown_94", "shape": [160], "dtype": "float32"}, {"name": "StatefulPartitionedCall/transpose_143/perm", "shape": [4], "dtype": "int32"}, {"name": "StatefulPartitionedCall/transpose_145/perm", "shape": [4], "dtype": "int32"}, {"name": "StatefulPartitionedCall/split_32", "shape": [1, 1, 160, 960], "dtype": "float32"}, {"name": "unknown_96", "shape": [960], "dtype": "float32"}, {"name": "StatefulPartitionedCall/transpose_146/perm", "shape": [4], "dtype": "int32"}, {"name": "StatefulPartitionedCall/onnx_tf_prefix_Constant_156", "shape": [], "dtype": "float32"}, {"name": "StatefulPartitionedCall/onnx_tf_prefix_Constant_155", "shape": [], "dtype": "float32"}, {"name": "StatefulPartitionedCall/Const_17", "shape": [4, 2], "dtype": "int32"}, {"name": "StatefulPartitionedCall/transpose_148/perm", "shape": [4], "dtype": "int32"}, {"name": "StatefulPartitionedCall/Reshape_16", "shape": [3, 3, 960, 1], "dtype": "float32"}, {"name": "unknown_98", "shape": [960], "dtype": "float32"}, {"name": "StatefulPartitionedCall/transpose_149/perm", "shape": [4], "dtype": "int32"}, {"name": "StatefulPartitionedCall/onnx_tf_prefix_Constant_160", "shape": [], "dtype": "float32"}, {"name": "StatefulPartitionedCall/onnx_tf_prefix_Constant_159", "shape": [], "dtype": "float32"}, {"name": "StatefulPartitionedCall/transpose_151/perm", "shape": [4], "dtype": "int32"}, {"name": "StatefulPartitionedCall/split_33", "shape": [1, 1, 960, 320], "dtype": "float32"}, {"name": "unknown_100", "shape": [320], "dtype": "float32"}, {"name": "StatefulPartitionedCall/split_34", "shape": [1, 1, 320, 1280], "dtype": "float32"}, {"name": "unknown_102", "shape": [1280], "dtype": "float32"}, {"name": "StatefulPartitionedCall/transpose_155/perm", "shape": [4], "dtype": "int32"}, {"name": "StatefulPartitionedCall/onnx_tf_prefix_Constant_165", "shape": [], "dtype": "float32"}, {"name": "StatefulPartitionedCall/onnx_tf_prefix_Constant_164", "shape": [], "dtype": "float32"}, {"name": "ConstantFolding/StatefulPartitionedCall/split_35-folded-1", "shape": [2], "dtype": "int32"}, {"name": "StatefulPartitionedCall/flatten/Const", "shape": [2], "dtype": "int32"}, {"name": "StatefulPartitionedCall/transpose_156", "shape": [1280, 5], "dtype": "float32"}, {"name": "StatefulPartitionedCall/mul_1", "shape": [5], "dtype": "float32"}, {"name": "StatefulPartitionedCall/assert_equal_1/Assert/AssertGuard/pivot_t/_114", "shape": [], "dtype": "bool"}, {"name": "StatefulPartitionedCall/assert_equal_1/y", "shape": [], "dtype": "bool"}, {"name": "StatefulPartitionedCall/LogicalAnd", "shape": [], "dtype": "bool"}, {"name": "StatefulPartitionedCall/assert_equal_1/All", "shape": [], "dtype": "bool"}]}]}